Output Files/Best Model Weights/best_model_fold_torch (Quarterly).pt (torch, 707232 bytes, 9 tensors)

lstm1.weight_ih_l0 f4 [468, 21]
000000 7f 2d 04 bd 1a 2e 99 3d 09 0b 5e 3d dc 2b 12 3d
       -0.03226995 0.07479496 0.054209743 0.03568636
000010 41 9a 29 3c eb 7b 0d bd 8f 91 ae bd 77 d7 6b 3c
       0.010351718 -0.034542006 -0.08523857 0.014394633
000020 3c fd af bd 11 47 9f 3d c2 fb 3d 3d 23 75 c7 bc
       -0.085932225 0.07777227 0.046382673 -0.024347847
000030 8a e1 63 bc 80 49 5f bc 30 8b 46 3d f4 4e 35 bc
       -0.013908753 -0.013628364 0.048472583 -0.011066187
000040 90 27 b6 3c 45 00 8b bd 2e 27 99 3c 9f 4a 87 3d
       0.022235662 -0.06787161 0.01869544 0.0660603
000050 5b 4d 73 bd 0e f1 0a 3d a2 77 aa 3d ed 80 04 3e
       -0.059399944 0.033921294 0.083235994 0.12939806
000060 23 27 b9 bc c5 3b cb 3d 0b 41 25 3e c1 42 ae 3d
       -0.02260167 0.099235095 0.16138093 0.08508826
000070 1c 6b 4a 3e 46 9d 3c bc f2 b1 0b 3e eb b4 50 3b
       0.19767421 -0.011512106 0.136421 0.0031846117
000080 35 09 6d bb 1d 14 09 bd 05 e5 3c 3e e5 50 a4 3d
       -0.0036168818 -0.033466447 0.18446739 0.08023242
000090 1d 83 ad 3d d9 29 fa 3d c9 30 a2 bb dc 68 fa 3c
       0.084722735 0.12215013 -0.0049496633 0.030567579
0000a0 24 0f 1e 3e 23 83 11 3e 90 9d 94 3b ba 70 c4 bb
       0.15435463 0.14210181 0.0045353845 -0.0059948834
0000b0 04 c5 58 bd 06 0c d0 3b d6 4c de bc 17 52 a6 bd
       -0.052922264 0.0063490896 -0.027136248 -0.08121126
0000c0 46 35 a1 3d c0 bb 80 bc e1 ca a9 3d 3a 31 f7 3c
       0.07871489 -0.015714526 0.08290649 0.03017484
0000d0 f5 fa 0d bd a6 45 84 3d 0f 4f 7a 3d a8 df b4 bd
       -0.03466316 0.06458597 0.061110552 -0.088317215
0000e0 19 90 22 bd 13 5a 85 bd dc b7 9a 3d ff f7 ce 3c
       -0.039688203 -0.06511321 0.075546 0.025264738
0000f0 02 02 59 bd 68 13 8d bd 1b 78 b2 bd 00 c6 6b bc
       -0.05298043 -0.06888467 -0.087143146 -0.014390469
000100 f4 41 3b bb 87 e0 a9 bd 34 82 44 bd a6 a4 ba bd
       -0.0028573247 -0.08294778 -0.047975734 -0.091134354
000110 87 54 68 3d 7d 1f 4e bd 76 79 07 bc c9 2a a4 3d
       0.056721237 -0.050323 -0.008268705 0.08015973
000120 86 dd 0d bd 6c d7 4c 3d 17 c7 d5 3d 7d 11 39 bd
       -0.03463509 0.05001013 0.10438364 -0.045182694
000130 94 6d 70 bd 93 69 b4 bd d2 6e a3 bd 46 88 bc 3c
       -0.05869825 -0.08809199 -0.07980122 0.023014199
000140 0d b1 b5 3a 3d 3e b6 bd c1 14 f9 3c 0f 08 70 bd
       0.0013861969 -0.0889859 0.030405404 -0.058601435
000150 fa ba 2f 3d e4 6a 94 3d 1b 20 bb 3d f1 da 47 bd
       0.042902924 0.0724695 0.09136983 -0.048792783
000160 cb 18 68 3d 1c 9e b2 3d 73 46 06 3b 76 54 35 3b
       0.05666427 0.08721563 0.0020488768 0.002766875
000170 2c d6 20 bd a3 49 c3 3d 76 1b a4 bd cf 52 5a bb
       -0.03926675 0.095355295 -0.0801305 -0.0033313518
000180 ac ad d2 ba 03 58 84 3d dc 7f bb bb 10 cc 98 3d
       -0.0016073487 0.064620994 -0.005722029 0.07460797
000190 af 8a fd 3b 1c 09 f1 3d 1b a9 52 3d db cc a6 bc
       0.0077374796 0.117693156 0.051430803 -0.020361355
0001a0 e7 5b 09 bd 23 bd 46 bd cc fa 23 bd c5 75 43 3c
       -0.03353491 -0.04852022 -0.0400341 0.011929934
0001b0 2d 7f 9c bd 1b f2 89 bd c0 51 aa 3d 82 6a 0e 3d
       -0.07641444 -0.06735631 0.08316374 0.034769543
0001c0 fd d6 80 bc a9 e3 a9 bd c5 d5 b0 3b fb c8 27 3d
       -0.015727514 -0.08295376 0.005396577 0.040963154
0001d0 04 45 d1 3c 6a 8a 23 bd ed 56 c2 3b af 22 74 bd
       0.025545605 -0.039926924 0.0059307725 -0.05960339
0001e0 31 b4 2a bd d1 e3 3e 3d 80 12 f8 3c 0c bd 91 3b
       -0.04167575 0.04660398 0.030282259 0.004447585
0001f0 cd fe 8d 3d 26 7f c4 bd 54 5e f4 bc d6 a9 d1 3c
       0.06933365 -0.09594564 -0.029830135 0.02559368
000200 7d 70 96 3d 08 68 c8 b8 50 54 37 bd 71 77 2d 3c
       0.07345674 -9.5561205e-05 -0.04475814 0.010587559
000210 af 14 17 3d b3 27 66 bd f3 fc b4 3c 7e 86 84 3c
       0.03688496 -0.056190204 0.022093272 0.016177412
000220 5b 44 03 3d b5 40 1b 3d 03 bd 3e bd 14 9f b8 3d
       0.03204761 0.037903506 -0.046566974 0.09014717
000230 b2 e5 d5 bc b5 6e 51 bd 8f 49 85 3c 58 ad 63 3c
       -0.026110504 -0.05113097 0.016270427 0.013896309
000240 f4 71 f6 bb 39 13 c0 3c 4a 9a 87 3d 70 6b a4 bd
       -0.0075209085 0.023446666 0.06621225 -0.080283046
000250 0f 40 b4 3d da 23 86 bd 42 7c 1e bd e3 2f 64 bd
       0.08801281 -0.06549807 -0.03869272 -0.05570973
000260 99 b2 c9 3a 57 58 02 bd 4e e1 3d bc 9b 9f 10 3c
       0.0015388309 -0.03182253 -0.011589361 0.008827115
000270 3e 28 26 3c e8 62 45 bd e1 1f 55 3c 37 cc 3b bc
       0.01014143 -0.048190027 0.013008089 -0.011462263
000280 9e d0 ce 3c a8 b3 a3 3d 6a 1f 72 bd 8e e0 27 3d
       0.02524596 0.07993251 -0.05911199 0.040985636
000290 bd f1 fb ba 0a 00 97 bb ef e7 d6 3c 77 27 de bb
       -0.0019221824 -0.004608159 0.026233641 -0.006779607
0002a0 78 6b af bd d3 b7 bc 3a dc 91 cb 3d 63 a9 b4 3d
       -0.0856542 0.0014398046 0.0993993 0.088213705
0002b0 01 fe 24 bc cb 85 62 bb 70 0e 67 bb a8 6d cd 3d
       -0.010070325 -0.003456461 -0.0035256408 0.10030681
0002c0 f2 37 c7 3c c2 29 3a 3d 17 96 ad 3d 33 ea 82 3d
       0.024318669 0.04544998 0.08475893 0.06392326
0002d0 60 c7 72 3d 99 7d ad bc d4 1c 93 3d ec fd a7 3d
       0.05927217 -0.021178054 0.07183233 0.08202729
0002e0 c6 2e 2c 3d c0 80 6f 3b 51 9d 00 3d 3d 09 e8 3d
       0.042036794 0.0036545247 0.03140003 0.11329887
0002f0 a5 12 a4 3d e5 11 8b bd 43 ec 29 3d a0 e2 23 3d
       0.08011369 -0.067905225 0.041485082 0.04001105
000300 57 a7 98 bd 01 5e af 3b 4d b0 3f 3d 1b 60 f9 bc
       -0.074537925 0.0053517823 0.046798993 -0.030441334
000310 a0 21 68 bb 5e fc 44 bd 2d 16 89 bc 04 24 b9 bd
       -0.0035420433 -0.04809224 -0.016734207 -0.090400726
000320 a9 48 2b bd a0 6f 3a 3d ae 47 9b 3d 58 d9 a1 3c
       -0.04181734 0.04551661 0.07582031 0.019756958
000330 e6 c6 4f 3d e4 53 76 3d ac 6b fd 3b f6 4a ca 3c
       0.050726794 0.060138598 0.0077337828 0.024693947
000340 0b a6 24 3d 72 cd 01 bd c8 1f e0 3c da 27 9f bd
       0.040197413 -0.03169007 0.027358904 -0.07771273
000350 8d 31 07 3c da 7a a6 3c 53 2c 84 bc cc e8 0c bc
       0.00825156 0.020322252 -0.016134417 -0.008600425
000360 95 b9 94 3d 73 50 a6 bd 3e b9 52 3c 39 05 4a bc
       0.072619595 -0.08120813 0.012861548 -0.012330347
000370 7f 0b a0 bd 79 95 3c 3d 2c 9a 95 bb f1 fb cd 3d
       -0.07814693 0.046040986 -0.004565498 0.1005782
000380 10 3d 30 bc f7 c0 bf 3d 1d be 48 3d 3a 24 3e 3b
       -0.010756746 0.09362977 0.04900943 0.0029013292
000390 0c 53 e2 3c eb da 3a 3d 12 ec 3e 3d 6c 85 87 3c
       0.02762749 0.045618933 0.046611853 0.016543113
0003a0 c8 fc 58 3d 80 be 8e bd 9d 0f 8a 3d 99 50 b2 bd
       0.052975446 -0.06969929 0.06741259 -0.08706779
0003b0 53 1b ea b9 15 56 a1 bd 86 eb 4f 3d 22 89 8b 3d
       -0.00044652316 -0.07877747 0.050761722 0.068132654
0003c0 6b 40 98 3c 7f c4 cd bd 7b 6b 6d bd ac ae 9a bd
       0.018585404 -0.10047244 -0.05796383 -0.07552847
0003d0 86 55 07 bc 02 67 6a 3d eb 5e bf bd 6d 6b 6e bc
       -0.0082601365 0.057227142 -0.09344276 -0.0145519795
0003e0 2c 3e 18 bb 29 16 a1 bd e1 f7 4b bd d5 a2 7e bd
       -0.0023230417 -0.07865555 -0.049796943 -0.062167007
0003f0 e0 e5 e2 bc 45 15 a1 bd 75 80 73 bc c4 05 ff bc
       -0.027697504 -0.07865385 -0.0148621695 -0.031130679

lstm1.weight_hh_l0 f4 [468, 117]
000000 77 00 b4 3d 3d 64 f5 37 ea c4 90 bd 79 ad 4d 3d
       0.08789151 2.9252953e-05 -0.070688084 0.050214265
000010 24 06 fd bc 44 a0 6b bd 98 64 b9 3c da 72 9d 3d
       -0.030886717 -0.057525888 0.022630975 0.07687922
000020 45 dd 81 bc 27 73 2d 3d 4d 9d fb 3c 9c 53 c3 bc
       -0.01585258 0.042346146 0.030714655 -0.023843579
000030 be 51 19 3d 69 ec 83 3d 22 61 7a bb c6 42 d5 3c
       0.03743147 0.06441576 -0.0038204868 0.026032817
000040 ac 5c 50 bb a6 fa 09 3d 49 22 18 bd 39 f8 5f bd
       -0.0031793518 0.033686303 -0.037142072 -0.054680083
000050 4b 96 2f 3d 1d 91 29 3d 40 3a 52 3d 14 7b e9 3b
       0.04286794 0.041398156 0.051325083 0.0071252678
000060 a8 91 a5 3d 06 15 e4 3c 40 2d 88 3d 40 b1 8d 3c
       0.08084422 0.027842056 0.06649256 0.017296433
000070 32 ca 12 3d 16 cf 93 3c f6 f1 ae 3d ff a1 9d 3c
       0.03583736 0.018043082 0.08542244 0.019242285
000080 59 a2 5f bd 99 14 21 3d 9a fb 97 3c 23 d2 00 bd
       -0.054598186 0.039326284 0.01855259 -0.031450402
000090 a1 61 0b bd 6f f7 59 bd b0 f3 56 3d 35 c5 83 3d
       -0.034028653 -0.053214487 0.052478492 0.06434099
0000a0 39 77 7c 3d 6f 5c db 3c eb b1 7f 3d 3b 0c af 3d
       0.061637137 0.026777474 0.062425535 0.08547255
0000b0 55 71 23 3c f9 88 8c 3d c4 41 0d 3d 65 0c 8c 3d
       0.009975751 0.06862063 0.034486547 0.068383016
0000c0 d1 03 0c 3d ae c4 83 bd ab bf 5c bd 8b 66 85 ba
       0.034183327 -0.06433998 -0.053893726 -0.0010177655
0000d0 82 ed 61 bd fb 62 b1 bc 1b 82 a1 bd 51 28 a7 3d
       -0.055158146 -0.021653643 -0.07886144 0.081619866
0000e0 f7 cc cd bc a6 e7 9f 3d 96 21 93 bd cc f0 9a 3d
       -0.025122149 0.07807855 -0.071841404 0.075654596
0000f0 56 25 86 bd b2 12 0d 3d ad 7d 64 bd ff a0 46 bd
       -0.0655009 0.034441657 -0.055783916 -0.04849338
000100 7b 04 4a 3d c8 1d 42 3d 53 f6 74 3c a0 f8 51 bd
       0.04932068 0.047391683 0.014951306 -0.051262498
000110 57 53 78 3d 45 3b ec 3d 11 da bf bb 69 7a 28 3d
       0.060626354 0.11534742 -0.005854853 0.041132364
000120 4f 8c 24 3d 26 7a 5d 3c ac d1 c7 3c f6 62 bd bc
       0.04017287 0.013517892 0.024391972 -0.023118477
000130 29 66 4e 3d b6 66 70 3d 59 32 a5 3d dd 31 92 bd
       0.050390396 0.058691703 0.08066244 -0.07138417
000140 e1 28 79 3d e2 b6 25 bd 57 b3 d0 bb 6f fe a0 3d
       0.06083 -0.040457614 -0.006369035 0.07861029
000150 a7 cf 93 bb d5 43 63 3d 70 da c7 3d 93 55 6f 3c
       -0.004510838 0.05548461 0.097584605 0.014607805
000160 57 0a 63 ba 44 8e 62 bd 25 2c 1a 3d c3 89 7b bd
       -0.00086609035 -0.055311456 0.037639756 -0.061410677
000170 4d a5 a9 bc 83 35 c7 bc 8d 0f a0 bd 5e cd b0 bc
       -0.020708704 -0.024317509 -0.07815466 -0.021582302
000180 d3 31 b7 3d 26 c3 a1 bd fd c9 99 bd 89 4a 84 3d
       0.0894505 -0.0789855 -0.07509229 0.06459529
000190 01 d1 16 bb ec a4 13 bd af a7 e1 3b bf 68 a9 3a
       -0.002301276 -0.036045954 0.0068864445 0.0012924894
0001a0 9c ab a0 3b 17 25 84 3d 31 8d 19 3c a2 73 82 bd
       0.00490327 0.06452387 0.009372042 -0.063697115
0001b0 6c 13 d0 bc fe 63 cb bd 6d d2 fc bb 13 8c f7 3c
       -0.025399886 -0.09931181 -0.0077155144 0.03021816
0001c0 90 54 ab 3d 91 e0 5f bc 73 f2 a5 3c 92 9d b4 3d
       0.083657384 -0.013664381 0.02025721 0.08819117
0001d0 0c db 06 3b c4 bc c1 bd 35 d8 09 3e 7c d9 a9 3d
       0.002057734 -0.09459832 0.13461383 0.08293435
0001e0 b1 de 97 3d f8 5e 08 be 74 ac c8 bb 0e 2e 1b 3e
       0.07415522 -0.13317478 -0.0061240736 0.15154287
0001f0 1d 98 2a bc d2 36 16 be 30 2f eb 3d b8 3e cb 3d
       -0.010412243 -0.1466935 0.1148361 0.09924072
000200 04 a2 fa 3b 66 50 1b 3e 17 63 f1 3c 2c 80 31 3e
       0.0076487083 0.15167388 0.029466195 0.1733405
000210 41 10 92 3b 4a 20 a4 bd 15 29 cb bd 43 b6 de bd
       0.004457504 -0.08013971 -0.09919945 -0.108746074
000220 b9 77 b3 3d a7 68 09 3d 3f f3 8a 3c 05 d9 39 bc
       0.0876307 0.03354707 0.016961692 -0.011343245
000230 e0 f1 0d be a2 6e 8a 3d 50 75 63 bd d1 3d 24 be
       -0.13861799 0.06759383 -0.0555318 -0.16039206
000240 db 1c e9 3c 58 34 a3 3d 08 26 6c bd a2 ee d2 3d
       0.028456142 0.07968968 -0.057653457 0.10299422
000250 57 a9 1d bd b4 c1 76 3d f4 2f a2 ba ca 10 57 3d
       -0.038491573 0.060243323 -0.001237391 0.052506246
000260 35 2a 15 3e 9b 13 2c be 6c 45 ff 3d 99 b7 09 3e
       0.14566882 -0.16804354 0.12464413 0.13448943
000270 b9 4b e0 bc cf 4d 15 be af 01 d8 3d 82 c6 ac bd
       -0.027379857 -0.14580463 0.10547196 -0.084363
000280 53 06 fd bd e9 35 04 3d 40 29 ae 3a c0 fd 07 be
       -0.12354722 0.032277975 0.001328744 -0.13280392
000290 97 e9 29 3e 3f 92 4c bd c9 ec c2 bb b1 a4 25 3e
       0.16593014 -0.04994416 -0.005948637 0.16176106
0002a0 2a 42 1f bd de ba b9 3d 5f 82 5f 3c b0 9c 93 bd
       -0.03888146 0.09068845 0.013641923 -0.0720762
0002b0 9c d8 19 be 05 34 05 be 1a 77 e9 bd 2b 34 ad 3d
       -0.15024036 -0.13008125 -0.1139967 0.08457216
0002c0 43 46 de bc 23 fa e7 bd 48 9a 85 3d c8 1f 57 3b
       -0.027133113 -0.11327007 0.065235674 0.003282534
0002d0 c6 c5 04 be 7d 1b 28 3e e2 24 c9 3d b8 cd e1 3d
       -0.1296607 0.16416736 0.09821488 0.11025566
0002e0 d1 4d a2 3d b8 d5 5f 3e cd ca ac 3d 00 53 0f 3d
       0.079249986 0.21858871 0.08437119 0.034991264
0002f0 11 49 9e 3d a2 ed d5 3d ab b6 54 bc 7d bd 92 3d
       0.0772878 0.104457155 -0.012983005 0.07165048
000300 93 62 fb bd 6e 31 af bd 8f 39 80 3d 82 49 c5 bd
       -0.12274661 -0.0855435 0.062609784 -0.09633161
000310 62 19 e7 bd dc d8 4c 3e 7c a4 52 bd 0a 00 81 3d
       -0.11284138 0.200046 -0.051426396 0.062988356
000320 b4 40 00 be 86 f6 cf 3c c8 0f 92 bc 48 76 4c bd
       -0.12524682 0.025386106 -0.01782979 -0.04991749
000330 29 b9 ed 3d d9 30 10 3d 5d ab be bd 10 a0 23 3d
       0.11607582 0.035202835 -0.09310029 0.03994757
000340 9d 7e 81 ba 4c 77 04 bc 50 9e 44 3d 9d a5 03 be
       -0.0009879653 -0.008085083 0.04800254 -0.12856145
000350 2a 17 98 3c c5 7c 30 bb 5a 50 1c be bd a5 35 3d
       0.018565733 -0.0026929837 -0.15265027 0.044347513
000360 dc 9b ab bd 5d 20 29 bd 77 37 31 3e b1 6d bf 3c
       -0.08379337 -0.04129063 0.17306314 0.023367735
000370 e9 d4 bc bd a5 71 c5 3d 95 4e 2f 3d 31 42 9e bd
       -0.09220297 0.096408166 0.04279955 -0.07727469
000380 d2 13 11 3e 7a 5d e2 3d 47 71 55 bd 42 e3 0b 3e
       0.14167717 0.110529855 -0.052109983 0.1366091
000390 d9 55 aa bd bd 50 3c 3c 25 c0 dc 3d 77 59 10 bd
       -0.083171554 0.011493859 0.10778836 -0.03524157
0003a0 bc c5 25 bc 20 3d d2 3c 34 92 80 3d 8b 3e 9e 3d
       -0.010117944 0.025663912 0.06277886 0.07726773
0003b0 9c 05 26 bd ea 67 24 bd 39 25 3d 3d 78 22 e5 3d
       -0.040532693 -0.040138163 0.046178076 0.11188215
0003c0 bc 93 1a bd 3d c9 16 bd 2a 86 3b 3d 51 60 c1 bd
       -0.037738547 -0.03681301 0.045782246 -0.09442199
0003d0 7e 50 53 3d 0d e1 cb 3d e5 d0 d9 3a 17 08 18 bd
       0.051590435 0.099550344 0.0016618042 -0.03711709
0003e0 9d 38 30 3d 3b ff d8 3c 15 8f 15 3d 4c ab e5 3b
       0.04302274 0.02648889 0.036513407 0.0070089456
0003f0 44 d5 92 3d ae 05 24 3d 2e b9 51 bd d2 a8 21 bd
       0.071695834 0.04004448 -0.05120199 -0.03946764

lstm1.bias_ih_l0 f4 [468]
000000 18 47 71 bd 9f b0 18 3c f8 b6 64 bc 44 b7 57 3d
       -0.05890569 0.0093194535 -0.013959639 0.05266501
000010 9a f0 5c 3c f8 69 c5 bd f2 8c 07 3d 74 a0 1b bc
       0.013485098 -0.096393526 0.0330934 -0.009498704
000020 83 90 80 3d 20 19 2b bd a5 d8 f0 bc b8 5e 51 bd
       0.062775634 -0.041772008 -0.02940018 -0.05111572
000030 13 4f 09 bc 0b 53 8e 3d e4 41 61 3d be 71 41 3d
       -0.008380669 0.06949433 0.05499448 0.047227614
000040 55 72 8f 3d e9 f1 bf 3d 13 07 29 bd 2e 96 40 bd
       0.07004229 0.093723126 -0.041266512 -0.047018223
000050 8d 8b 99 3c c0 84 6f bc 22 f5 16 3d 2d 2a 87 3d
       0.0187433 -0.014619052 0.03685487 0.06599841
000060 b0 c1 4b 3d b3 f7 24 bc 16 0a 89 bd 65 8e c1 3d
       0.04974526 -0.010068822 -0.06691377 0.09450988
000070 00 23 a8 bd e4 8f e4 bc 0e 53 58 3d a3 62 29 bd
       -0.08209801 -0.027900644 0.052813582 -0.041353833
000080 23 e1 14 3d f7 7f 96 3d 20 58 ea 3a 2f ef 40 3d
       0.03634752 0.07348626 0.0017879046 0.047103103
000090 c4 71 89 bc 4a 73 29 bc c8 98 3f bd b8 9a 3a 3d
       -0.01677788 -0.010342428 -0.046776563 0.045557708
0000a0 81 c2 4d 3d 02 71 4b 3d ff 87 6e 3d 17 53 9b 3d
       0.05023432 0.04966832 0.058235165 0.075842075
0000b0 54 e0 45 bd e6 19 93 bc bd 9f 6f 3c 4a c0 8e 3d
       -0.04830964 -0.017956685 0.014625487 0.0697027
0000c0 ed 81 1a 3d 57 50 47 bd 96 39 7e bd 97 8d 70 3d
       0.037721563 -0.048660602 -0.062066637 0.05872878
0000d0 fb 60 f1 3c ea f8 77 bd 59 fb c7 3d 62 77 b8 3d
       0.02946519 -0.060540117 0.09764738 0.090071455
0000e0 8a 09 7f 3d 39 93 83 bd ca 20 0c bd 08 d6 a8 3d
       0.062264957 -0.06424565 -0.034210958 0.08243948
0000f0 8d 34 37 bd 0a 02 79 bd aa 87 a7 bc c8 c8 44 bd
       -0.04472785 -0.06079296 -0.020450432 -0.048043042
000100 15 b4 93 3d 72 24 ea 3c 79 4a 94 bc b6 2d 58 3d
       0.07212082 0.028581832 -0.018101918 0.05277797
000110 fb 5f 8b 3c b3 a9 c4 3d 1e 59 c0 3c ad 0a 07 3c
       0.01701354 0.0960268 0.023479994 0.008242291
000120 70 2b 09 3c e2 ae 94 3a f6 37 51 3d 21 6f 82 bc
       0.008372173 0.0011343623 0.05107876 -0.015922131
000130 81 67 1b bc 22 d5 4a bd bc e1 3e 3c b8 b4 4b bd
       -0.0094851265 -0.049519666 0.011650499 -0.049732894
000140 19 d3 1c 3d 91 ea ba bd 01 8c b5 3d 6b a4 98 3d
       0.038287256 -0.09126771 0.08864594 0.07453235
000150 18 e8 9d 3c bb a7 12 3b f7 5e 50 bd cc 18 e7 3d
       0.01927571 0.0022377807 -0.050871816 0.112840265
000160 73 7b 8f bd 67 0b 6c 3d 16 e6 27 bd 98 0e 9d bd
       -0.07005968 0.05762806 -0.04099091 -0.07668799
000170 d0 49 58 3c d8 cb 0e 3c 9c 08 98 bd 83 62 63 3d
       0.013201192 0.008715592 -0.07423517 0.05551387
000180 66 60 3d bd 26 ca 84 3d 77 b4 9a bd 23 74 b9 3d
       -0.04623451 0.06483869 -0.07553952 0.090553544
000190 43 16 af 3d 8b 13 64 3d 3b 6e c8 3c 2a 58 46 3d
       0.08549168 0.0556827 0.024466624 0.048423924
0001a0 4e 4f 56 3d 3d 44 3d 3d 48 ec 9f 3d da a3 d5 bd
       0.052321725 0.046207655 0.07808739 -0.10431643
0001b0 31 4b 2d bd 90 37 73 bd 74 ff 8e bd f4 c7 a0 bd
       -0.042308036 -0.05937916 -0.069823176 -0.07850638
0001c0 de fc 21 bd fa 84 7a 3d 72 1a a4 3b 69 fa 33 3d
       -0.039547794 0.061161973 0.0050080353 0.04393998
0001d0 9c b9 9d 3d 15 50 6f bd e0 c6 d0 3d 66 e5 17 3d
       0.07701418 -0.05842598 0.101941824 0.037084006
0001e0 a6 28 6f bd 3e 32 a4 3d f1 cd 9b bb 16 04 8f bd
       -0.058388375 0.080173954 -0.0047547747 -0.06983201
0001f0 ba 78 3f bc cc 34 a7 3d d0 20 be 3b 84 75 6e 3d
       -0.011686498 0.08164367 0.0058022514 0.05821754
000200 15 2f 4c bd 29 b5 09 3d d0 b1 03 bd a6 e4 0b 3d
       -0.04984959 0.033620033 -0.032151997 0.034153603
000210 a0 de a5 bd 91 bf 98 bd 72 e3 64 3d 73 1d 85 3d
       -0.08099103 -0.074584134 0.05588097 0.064997576
000220 17 63 8f 3d d4 30 4c 3c 3a 8f ff bc 76 26 ce 3c
       0.07001322 0.012462813 -0.031196225 0.025164824
000230 e7 c0 a4 3d a4 6c 8f 3d 92 7e 14 3d 7a 3d 2d bb
       0.08044606 0.070031434 0.03625352 -0.0026434348
000240 21 5f a6 bd 68 0e 19 3d 04 f5 a9 bd 50 e8 4b 3d
       -0.08123613 0.037367254 -0.08298686 0.049782097
000250 81 95 1f bc 68 bb 18 bd 0c 4b a7 bd a7 04 33 3d
       -0.009740234 -0.0372881 -0.08168611 0.04370561
000260 16 91 79 bd 62 c9 86 3d 66 fb 8f bd d7 33 a1 bc
       -0.06092938 0.065813795 -0.07030372 -0.01967804
000270 27 ee 37 bd 6f 9b 6a bd 0b 3c 86 bd 8a 99 fb 3c
       -0.044904854 -0.05727714 -0.06554421 0.030712862
000280 7d c8 a2 bc 34 40 d5 bb 7c 06 a0 bc 67 50 81 3d
       -0.01987099 -0.0065078977 -0.019534342 0.06314164
000290 2b c9 9b bd 63 ca 1d 3d 8d 32 51 3b 84 42 0b 3d
       -0.07606729 0.03852309 0.0031921 0.03399898
0002a0 de 9e 70 3d 1c dd b3 bd eb b1 93 bd 78 c7 39 3d
       0.058745258 -0.08782408 -0.072116695 0.045356244
0002b0 aa 53 8e 3d 33 e7 8c 3c a8 84 b5 bd c6 a7 cf 3c
       0.069495514 0.017200088 -0.08863193 0.025348555
0002c0 d5 e6 60 3c a3 af b3 bd 2f 20 9c bd 23 36 21 bd
       0.01372691 -0.087737344 -0.07623326 -0.03935827
0002d0 7f 76 d1 bd be 66 06 bd d6 e3 78 3d 6e 12 99 3d
       -0.102276795 -0.032812826 0.060764156 0.07474218
0002e0 0e 2b f0 bd d1 bc a0 3d a7 5b 25 bb da 63 ce bd
       -0.11726962 0.07848514 -0.002523163 -0.10077639
0002f0 49 21 99 bd 11 0c 1f bd db f8 fa 3c a2 58 00 3d
       -0.07477052 -0.038829867 0.030636242 0.031334527
000300 bb 69 8c bd fb 1a 2c 3d 63 e4 8f 3c 89 60 c6 bc
       -0.06856104 0.042017918 0.017564958 -0.024215953
000310 62 3c a8 bd 75 f2 9e bd e6 1e 93 3d 61 9a 33 3d
       -0.08214642 -0.07761089 0.07183628 0.0438484
000320 c6 f8 a4 3c 92 28 cf 3c 7b c7 78 3d 5d 99 0c 3d
       0.020138156 0.0252879 0.060737114 0.034325946
000330 65 59 a6 bd bb 35 1d 3d 7a 98 ad bc 96 d7 84 3d
       -0.081225194 0.03838132 -0.02119087 0.06486432
000340 00 05 93 3d 32 b5 02 bc 61 fc 1e bc 1f f1 86 bd
       0.07178688 -0.007977771 -0.0097037265 -0.06588959
000350 2f a1 ea bc 70 cb 20 3d 79 e2 59 bc 02 2a 4b 3d
       -0.028641311 0.039256513 -0.013298624 0.04960061
000360 c5 71 dd 3b d7 2b 94 bd 0e 66 f0 bc c8 1e 25 3d
       0.006757947 -0.07234924 -0.029345538 0.04031256
000370 28 a2 fe bc d8 37 9f 3d a2 6a 3f 3d c9 ba b7 3d
       -0.031083182 0.07774323 0.046732552 0.08971173
000380 73 b2 97 bd ee 88 c9 3a 36 6b bf bd 2b 1b bc 3c
       -0.07407083 0.0015375891 -0.09346621 0.022962173
000390 a7 b2 90 3d 4a 8a 99 3d b5 b1 12 3d 06 78 be b9
       0.07065325 0.0749708 0.035814006 -0.00036329048
0003a0 51 1f 8c 3d ba 00 2d 3d a5 85 5e bd b9 c9 24 bd
       0.06841911 0.04223702 -0.054326672 -0.04023144
0003b0 fb 7f bb bb e6 6b 42 39 15 8a 14 3c 7f 14 af bd
       -0.0057220436 0.00018541477 0.009066124 -0.08548831
0003c0 5b 31 bd 3d dc 7d a9 3c d5 3c e3 bc c0 fb aa 3d
       0.092379294 0.020689897 -0.027738968 0.08348799
0003d0 d3 f1 cb 3d 99 6e 8d bd 78 78 25 bc 27 8b be 3c
       0.09958234 -0.069058605 -0.010099523 0.023259712
0003e0 9b c7 ad 3d cc 40 02 3c a4 ca b3 3d b0 27 c3 bd
       0.08485337 0.007950019 0.08778885 -0.09529054
0003f0 f7 92 3a 3d a3 d1 df 3c 2d db a2 bc 93 bc 5c 3d
       0.045550313 0.027321642 -0.019879902 0.053890776

lstm1.bias_hh_l0 f4 [468]
000000 0c 60 9c 3d 25 46 f0 3d da b7 44 bd d8 03 3e bb
       0.07635507 0.11732129 -0.048026897 -0.002899399
000010 09 48 06 bd 26 6d a3 bd f2 69 19 bc 5c e5 52 bd
       -0.03278354 -0.07979803 -0.009363638 -0.051488265
000020 70 d2 f2 3a a9 92 af bd 8d b4 c7 3d e1 f8 27 bd
       0.001852585 -0.08572895 0.09751234 -0.041008834
000030 38 ef b1 3c 74 d2 c5 3c 12 8c 16 bd d3 e1 8d bd
       0.021720514 0.024148203 -0.036754675 -0.06927838
000040 ee fe 2c bd c5 11 6f 3c d6 3c 2a bd a0 59 5d bc
       -0.042235307 0.014591639 -0.041561924 -0.013510138
000050 15 bb 64 3d ae 25 93 3c a4 01 c7 bc 85 55 4f bd
       0.055842478 0.017962303 -0.024292774 -0.050618667
000060 77 cb 4a 3b c0 97 44 bd a0 4a 42 bd 87 9f e0 3c
       0.0030944028 -0.047996283 -0.04743445 0.027419819
000070 b8 35 aa bd 64 51 83 bd 49 6e b4 3d e3 3a 85 3d
       -0.08311027 -0.064120084 0.08810098 0.065053724
000080 07 39 0d 3d 47 d2 7d 3d c7 72 f3 3c 9b 88 73 bd
       0.034478214 0.061968114 0.029717816 -0.05945645
000090 89 ff 0c bd 11 a3 cc 3b 12 63 bf 3c 60 d2 32 3d
       -0.034423385 0.006245025 0.02336267 0.04365766
0000a0 08 7e aa 3d 92 e1 b9 bd 6a 99 ed 3c f2 ae 8e 3c
       0.0832482 -0.09076227 0.029003818 0.017417405
0000b0 46 56 98 bc 1e 45 65 3d 4b 4e 04 3d 52 ae 28 3d
       -0.018595826 0.05597412 0.03230123 0.04118187
0000c0 52 d4 3b bd 20 ed 0e 3d 70 7c ab 3d 1e e6 ef 3c
       -0.04585678 0.03489411 0.08373344 0.029284533
0000d0 45 19 99 3c f5 67 3c 3c 70 3f 44 3d c7 d9 8d bd
       0.018688807 0.011499395 0.04791206 -0.06926303
0000e0 4f fa 96 3d 8c ff b7 bd ac 7b 0a bc 70 7c 49 bd
       0.07371961 -0.089842886 -0.008452337 -0.04919094
0000f0 7b 63 b4 3d 53 58 80 3d ee f9 91 bd 41 33 cf bd
       0.08808037 0.062668465 -0.071277484 -0.10117198
000100 52 14 e2 bc d2 73 c2 3d 56 b4 46 3d 34 19 65 3d
       -0.02759758 0.09494747 0.048511826 0.05593224
000110 fc 78 44 bd d6 12 8d 3d 42 df a9 bd 1c 21 77 3d
       -0.047966942 0.06888358 -0.08294536 0.06033431
000120 08 87 17 3d 37 96 10 bd f7 f2 a7 3d 9d 77 88 3a
       0.03699401 -0.035299506 0.08200639 0.0010411624
000130 5a 41 0d bc 98 f0 48 bd 3b e7 0a bd e9 9a 36 bd
       -0.008621538 -0.049057573 -0.033911925 -0.044581328
000140 d2 90 17 bc f5 8a cd 3b 24 9a 21 3d 42 47 a2 bd
       -0.009250836 0.0062726685 0.03945364 -0.079237476
000150 4a 49 8d 3d 31 ee 18 3d 1f 29 8c 3d 4e 95 33 3d
       0.068987444 0.037336532 0.06843781 0.04384356
000160 7a 5c 3a bc 2a 5d 67 bd 9b 21 f0 3c 88 e4 9f bd
       -0.011374587 -0.056485333 0.0293129 -0.07807261
000170 e5 5b 70 3d c9 56 7d 3d b6 a5 a6 bd 51 70 89 bd
       0.058681387 0.061850343 -0.081370756 -0.06710876
000180 b4 da 8f 3d 95 79 8f 3d 52 d2 1c bd 23 26 74 bd
       0.07024136 0.07005612 -0.038286515 -0.059606683
000190 c4 91 7b bd 39 8c ef 3d f6 6b af bc ba 41 ba 3d
       -0.06141831 0.11696667 -0.021413784 0.090945676
0001a0 b1 cd 93 3c 0b 43 8a 3d 52 db cc 3d 7f c1 1f bd
       0.018042417 0.06751069 0.100027695 -0.03900289
0001b0 d3 dc c8 3c 73 45 11 bd a2 cb de bc 4b 74 b2 bd
       0.02451936 -0.035466623 -0.027196709 -0.087135874
0001c0 7f 43 15 b9 38 0a 74 bd 70 97 0e bb d9 25 cd 3b
       -0.00014234892 -0.059580058 -0.0021757744 0.0062606153
0001d0 28 a0 7d bc 62 ab db 3c 82 86 7f bd ff 0c 9b bc
       -0.015480079 0.02681512 -0.062384136 -0.018927095
0001e0 5c bb 1c bc 69 d8 35 bd df fd dc bd 80 f7 04 3d
       -0.009566154 -0.044395838 -0.107906096 0.032462597
0001f0 ea 57 56 bd 98 c8 64 3d 46 f7 74 bd b8 a3 4a 3d
       -0.052329935 0.055855364 -0.05980613 0.04947254
000200 d0 66 64 3c fc c2 22 bc 25 ff 95 3d 2d c8 08 bd
       0.013940528 -0.009934183 0.073240556 -0.033394028
000210 bb e4 bd bd e9 f0 ee 3b 10 44 50 bd 63 0f 96 bd
       -0.092721425 0.0072919023 -0.05084616 -0.073271535
000220 8a dc 6e 3d 0e c8 a7 bd 37 b5 14 bc 76 b4 dd bc
       0.05831579 -0.08192454 -0.009076408 -0.02706359
000230 86 c1 22 bc 74 47 e1 bc 52 91 11 3c d4 99 3b 3d
       -0.009933835 -0.027499892 0.008884745 0.045801
000240 fd 53 9f 3d 2f e2 9d 3d ee 82 0e 3d 24 47 6f 3d
       0.07779691 0.07709157 0.034792833 0.058417454
000250 0b 80 5e 3a fd 78 12 3d 11 f3 88 3d 9f 40 52 3d
       0.0008487708 0.035759915 0.06686986 0.05133116
000260 5b d3 9f 3c be 9c dd bc 77 8a 14 3d 7c 9a 91 bd
       0.019509962 -0.02705228 0.036264863 -0.07109544
000270 76 e0 63 3d 72 42 7a bd bb 5d 04 3c 6e 88 8b 3d
       0.055633985 -0.061098523 0.008078988 0.06813131
000280 08 d0 8d bd b7 9e 3a 3d 70 d7 fc 3c 3a 9f 54 3c
       -0.069244444 0.04556152 0.030864447 0.012977416
000290 ae 14 12 3d 58 72 90 3d ce 9f 5d 3b bb 57 92 bd
       0.035664253 0.07053059 0.0033817175 -0.071456395
0002a0 f1 45 04 bd 9e a0 b8 bd 00 e8 f4 3a 38 86 96 bd
       -0.032293264 -0.0901501 0.0018684864 -0.07349819
0002b0 e1 61 49 bd 5d 0e 26 bc 09 04 b5 bd c8 9d a8 3d
       -0.04916561 -0.01013526 -0.0883866 0.082332194
0002c0 b8 3e 1f 3d f4 8e b6 bc 7d 79 fb 3c ee 7c 55 bd
       0.038878173 -0.022284962 0.030697579 -0.052121095
0002d0 47 af d7 bd 5c 1e 13 bd 26 c7 21 3d 81 07 4a bd
       -0.105314784 -0.035917625 0.039496563 -0.049323563
0002e0 f9 e2 34 3d 6a 43 2c 3c 3c e6 9d 3d b1 74 4d 3d
       0.04416177 0.01051412 0.07709929 0.050160114
0002f0 bc 8b de 3c 26 49 37 3d 48 b8 d9 3c e2 87 db 3a
       0.02716624 0.044747494 0.02657713 0.001674887
000300 03 9e 75 3d 68 51 73 bd 92 bf 89 bc 61 24 20 3d
       0.059965145 -0.059403807 -0.01681498 0.039097194
000310 c8 f0 50 3d ee 2b 06 bc a5 18 2b 37 61 90 76 3d
       0.051010877 -0.008189185 1.0198132e-05 0.060196284
000320 12 94 91 bd 5c f1 15 3d 43 ab 4e 3d 88 2d 68 3c
       -0.0710832 0.03660713 0.050456297 0.014171012
000330 e5 b7 14 3d 66 4e 3b bd f5 58 be bd 2c 92 a7 bc
       0.036308188 -0.045729063 -0.09294311 -0.020455442
000340 6d 4a 0f bd 99 c9 4a 3d 83 d1 7e 3d b5 29 a1 3d
       -0.034983087 0.049508665 0.062211525 0.07869283
000350 84 53 99 3d b9 c9 9c bd 52 dd 55 bd 29 ca bf 3d
       0.074866325 -0.07655663 -0.05221302 0.09364731
000360 36 34 f0 bc 6a 3a 82 3d f6 11 91 3d 9c 81 33 3d
       -0.029321771 0.06358798 0.07083504 0.043824777
000370 ff 89 2c bd 84 59 b5 3d 92 5d 23 3d a2 7d fe 3c
       -0.04212379 0.088549644 0.039884157 0.031065766
000380 81 51 7b bc 5f 70 b9 3c f5 ab 01 3d 9f cf a4 bd
       -0.015339256 0.02263659 0.03165813 -0.08047413
000390 12 a8 b2 3c 26 b2 ec 3c f2 85 23 3d 17 10 b5 bd
       0.021808658 0.028893542 0.039922662 -0.088409595
0003a0 84 09 d1 3c b2 5f 30 bd 39 97 09 3d df 62 52 3d
       0.025517233 -0.043060012 0.033591483 0.051363822
0003b0 f1 7d 87 3d 4c 99 44 3d 65 34 83 bc 97 69 9a 3d
       0.06615818 0.047997758 -0.016016195 0.07539671
0003c0 33 b5 c0 3d 46 8f ff 3a 64 67 3d 3d 31 91 2d bd
       0.09409561 0.0019497655 0.04624118 -0.042374793
0003d0 07 f0 85 3d d2 16 3a bd 87 72 c4 3d 80 be 2b 3d
       0.06539922 -0.04543192 0.09592157 0.04192972
0003e0 8a 89 60 bd 58 d2 97 3d 63 d9 9a bd 17 66 6f 3a
       -0.054818667 0.07413167 -0.075609945 0.0009132339
0003f0 4b 62 a8 bd c5 27 a2 bb 92 31 64 bd 16 7a 9b bd
       -0.08221873 -0.0049485886 -0.055711336 -0.075916454

lstm2.weight_ih_l0 f4 [468, 117]
000000 83 33 00 3b 84 dd 9f 3d 15 d9 12 3d e2 d0 0e bd
       0.0019561953 0.078059226 0.035851557 -0.034867175
000010 f6 0b 31 bd 33 8b 20 3d 29 58 9e bd 99 4e 8c 3d
       -0.043224297 0.03919525 -0.07731659 0.06850929
000020 93 1f 6e 3d 9f b7 a6 bd 04 36 9b bd ff ff 8a 3c
       0.05813558 -0.08140492 -0.07578662 0.016967772
000030 27 76 a1 3d bb a4 58 bd 29 95 de bc 3e 06 cf bd
       0.07883864 -0.052891474 -0.027170734 -0.101086125
000040 34 01 3e bd 35 e5 0c bd de 31 b6 3c e8 f4 53 bd
       -0.046387866 -0.034398276 0.022240575 -0.051747233
000050 65 bc 58 bc 9e fb 0b bc 7a 1d b5 3d ba 39 83 ba
       -0.0132285105 -0.008543877 0.08843513 -0.0010011711
000060 9b 2f 8f bc 43 a4 46 bd eb 47 03 3d 2c 07 43 bd
       -0.017478755 -0.048496496 0.03205101 -0.04761426
000070 93 10 a5 3d 96 98 9b bc 79 99 9e 3d b2 9f 1d bc
       0.08059802 -0.018993657 0.07744116 -0.009620594
000080 37 70 40 3d e0 7f e4 bd 32 2f 59 bd 14 14 47 bd
       0.046982016 -0.11157203 -0.053023525 -0.048603132
000090 d1 c7 ac bd 3d 8e 42 3d bc 40 42 3d 9c ce 22 bd
       -0.084365495 0.04749893 0.047425017 -0.03974782
0000a0 1c 6c e3 bc ae 2d a4 3c 8c 7d 33 3d 21 3e 6d 3c
       -0.027761512 0.020041313 0.043820903 0.014480145
0000b0 65 0b 48 bd d8 74 a6 3d 2f 46 33 bd 7a 50 72 bd
       -0.04883899 0.08127755 -0.043768104 -0.05915878
0000c0 4d 31 4d 3d 5d 8f 9f 3d 3c 85 fb bc 2a 7a 9d 3d
       0.050095845 0.07791016 -0.03070318 0.076893166
0000d0 90 b3 dc 3b ec e2 8c 3d 90 67 d2 bd 47 b0 f4 3b
       0.0067352727 0.068792194 -0.10273659 0.007467303
0000e0 41 1c 44 bd c7 51 d7 3d 8a 28 85 3c 3a b9 6a 3d
       -0.047878508 0.10513645 0.016254682 0.057305552
0000f0 c8 20 4e bd 31 cf 84 3d 01 8b 36 bd 3f ea b5 bd
       -0.05032423 0.06484831 -0.04456616 -0.088825695
000100 0d d5 26 bd e1 4e d1 bc ac 19 a4 bd fc bc 99 3d
       -0.040730525 -0.025550308 -0.08012709 0.07506749
000110 00 4c e4 bb 4d 37 14 3e d5 15 55 bc 82 19 a0 3b
       -0.0069670677 0.1447422 -0.013005693 0.0048858533
000120 70 81 26 3d 5a f0 5d 3d c5 b0 f3 bc 57 1d 49 3b
       0.040650785 0.054184295 -0.029747376 0.0030687654
000130 26 b4 ff bc 58 a4 8f bd 81 86 b8 3c 51 40 77 bd
       -0.031213831 -0.07013768 0.022525074 -0.06036407
000140 a5 ef 25 bc b9 2e 1b 3d 75 fe 57 3d 61 3c 59 bd
       -0.0101279365 0.037886355 0.052732904 -0.053036097
000150 6f 85 27 3d 83 64 28 bd b8 41 73 3d b2 c3 f4 3d
       0.040898737 -0.04111148 0.059388846 0.119513884
000160 5d 75 79 3d 3c 17 69 bd cb 9b 08 bd 22 fe 81 3d
       0.060902942 -0.056906924 -0.0333517 0.063473
000170 78 07 8f bb 89 ff 1f 3d 90 d2 dd bc 41 db a4 3c
       -0.004364904 0.039062057 -0.027077943 0.02012408
000180 48 d1 af 3d b6 09 22 3d 66 24 90 bc 99 1a cb bb
       0.08584839 0.039560042 -0.017595481 -0.006198239
000190 22 34 3c 3d e5 a8 a6 3c 00 cc 41 bd 4c 0a 50 3d
       0.045948155 0.020344207 -0.04731369 0.05079107
0001a0 06 c2 e4 bd d9 42 19 bd f6 77 9f 3d 52 9c ce 3d
       -0.111698195 -0.037417267 0.077865526 0.100884095
0001b0 7c 1e 30 3c 10 9b 86 bd 7d 2b 97 3b 99 0f 91 bd
       0.010749456 -0.065725446 0.0046133385 -0.07083053
0001c0 6d 18 8e 3d 84 21 8d 3c 2e ba af 3d 6f 5f 8d 3d
       0.069382526 0.017227896 0.08580433 0.06902968
0001d0 ea 94 8d bd ab 27 c5 3b 16 28 87 bc 8d 47 06 bd
       -0.06913169 0.0060166917 -0.016498607 -0.03278308
0001e0 05 37 8c bd 07 86 80 bd 43 44 ab bd d8 f1 26 3d
       -0.06846432 -0.06275564 -0.08362629 0.040757984
0001f0 71 8e 73 bd 25 0a 8f bd c5 aa f8 bc 5b d6 b2 3d
       -0.059462015 -0.06984357 -0.030354867 0.08732291
000200 fb 35 50 bd 78 ca 83 3d ea 14 86 bd eb b3 3e 3d
       -0.05083273 0.06435102 -0.06546958 0.046558302
000210 28 04 be 3c c4 7b 6e bd ba 74 0e 3d a3 d5 81 bd
       0.023195341 -0.0582235 0.034779288 -0.06339576
000220 73 ad a9 bd ee c3 a4 bb d7 1f cf bd ae ce 04 3d
       -0.08285036 -0.0050282395 -0.10113495 0.032423668
000230 e5 a9 b5 bb e6 14 7c 3c 37 f4 5e bc 7c 73 95 3d
       -0.0055439346 0.015385842 -0.01360803 0.072974175
000240 47 f6 71 3d a4 63 47 bd 21 9c f6 bc 94 fa 63 3d
       0.05907276 -0.04867901 -0.030103745 0.05565889
000250 87 dc 33 bb 51 c5 d4 3d 09 d6 87 bd ea e6 94 bd
       -0.0027444677 0.103891976 -0.06632621 -0.07270606
000260 70 ff 37 bd b5 a0 e5 bc 32 36 3f 3d 86 5e 04 3d
       -0.04492134 -0.028030733 0.046682544 0.032316707
000270 62 aa d6 bd 11 c0 ad 3c af f5 f3 bb 66 5c 0d 3c
       -0.10481717 0.021209748 -0.0074450593 0.008627987
000280 35 66 8a 3c 40 62 26 ba 74 52 1c 3c 33 bc a3 bd
       0.01689444 -0.0006347038 0.009541143 -0.079948805
000290 d1 03 a5 bd c0 31 2e 3d b8 72 b7 3d b3 29 88 bd
       -0.080573685 0.042527914 0.08957428 -0.066485785
0002a0 75 5c 4e 3d c6 96 1f 3c 85 bd c6 3c b2 db 69 3b
       0.050381143 0.009740537 0.024260292 0.0035683927
0002b0 8d 19 da bc a9 c2 a1 bd e7 3e a8 3d 13 1b 3b 3d
       -0.026623512 -0.078984566 0.08215123 0.045680117
0002c0 cd 22 a6 bd de fc 9b 3d 23 16 0e bd a1 06 83 bd
       -0.081121065 0.0761659 -0.03468908 -0.06397749
0002d0 c9 14 8d bd d7 01 4a bd 6b e7 69 3d 3a c0 15 bd
       -0.0688873 -0.04931816 0.057105463 -0.036560275
0002e0 5c 4d 91 3d 86 07 bd 3d fb 4c c2 3d 3b b1 77 3d
       0.07094833 0.092299506 0.09487339 0.060471755
0002f0 a2 67 bd 3c 45 2b 1b bd cf a3 ae 3d 5c 66 c3 bd
       0.023120705 -0.037883062 0.08527338 -0.09541008
000300 ce 1b 2b 3b 3a 5c 9c 3d fe 45 2c bd 9d d2 9c bc
       0.0026109102 0.07634778 -0.042058937 -0.019143397
000310 bf c0 e0 3c da f6 d1 bb e9 ab 50 bc 98 07 a4 3d
       0.027435658 -0.006407601 -0.012736299 0.08009261
000320 50 a2 bd bc 05 28 d3 bd f2 96 e0 bc a1 a4 99 3d
       -0.023148686 -0.103103675 -0.027415726 0.075021036
000330 5d 27 96 3d e3 2a c7 3c 48 ef 10 bd f9 e5 cc bc
       0.07331727 0.024312442 -0.035384446 -0.025012003
000340 68 56 97 bd 94 e4 19 bd 3e e5 de ba d7 6a c3 3d
       -0.073895276 -0.037571505 -0.0017005575 0.095418625
000350 ba 32 dd 3c dd bf 2f bc 64 a7 1c 3d ea 5a fa 3b
       0.027001727 -0.010726896 0.038245574 0.0076402323
000360 18 d4 8f bd ed b8 92 bd 2a fd 0e bd 4d 6d e0 3c
       -0.070228755 -0.07164178 -0.034909405 0.027395869
000370 6d ef 62 3d a9 55 1c 3d fe 40 b8 3d b5 4b a8 3d
       0.055404115 0.03816763 0.08996771 0.08217565
000380 32 8c 14 bd 8f 50 4a 3d 44 23 b3 3c 15 cd 97 3d
       -0.036266513 0.049393233 0.021867402 0.07412163
000390 6d 0f 1d 3d 3b 64 93 3d 24 c4 63 bd 86 cd 14 3c
       0.03834479 0.07196852 -0.055606976 0.009082204
0003a0 db 4f 75 bb 8c d2 5b 3d 8f aa a3 bd 4f af 04 bd
       -0.003743163 0.05366759 -0.07991516 -0.03239375
0003b0 be 6c f3 bc 33 5e 45 bd 37 f1 55 bd 68 c5 57 3d
       -0.029714938 -0.04818554 -0.052231994 0.052678496
0003c0 a0 10 8c bd ed 8a 36 3d 91 6a ec bc 20 ef c5 bc
       -0.068391085 0.044566084 -0.028859409 -0.024161875
0003d0 04 bc 85 3c b8 02 40 bd 1a 31 92 3d ae 48 9c bc
       0.016325004 -0.046877593 0.07138272 -0.019077625
0003e0 4d 9b 3f 3c f8 88 95 bd bb 75 b7 bc 46 72 3a bd
       0.011694741 -0.07301515 -0.022395005 -0.045519136
0003f0 2e 65 fe bc b3 f4 c2 3d 24 c0 4b 3d 7a 41 3f 3d
       -0.031054106 0.09519329 0.049743786 0.046693303

lstm2.weight_hh_l0 f4 [468, 117]
000000 89 ab 5b bc 36 68 a7 bc a4 19 1d 3d f3 4f 86 3d
       -0.013407596 -0.020435434 0.03835453 0.06558218
000010 fd 83 8e bc e4 c7 8b bb 56 af bc bc 25 3e 24 3d
       -0.017396921 -0.004265772 -0.023032825 0.04009833
000020 a9 d7 99 3c 67 b4 28 3d 55 57 d6 3d 04 58 29 bd
       0.018779593 0.04118767 0.10465876 -0.041343704
000030 bb d3 e2 3b a0 bf b1 bd 6a a5 32 bd 91 e6 8b 3d
       0.006922213 -0.08679128 -0.043614782 0.068310864
000040 d5 bc 9e bd 5f 48 c8 3d f3 b3 ff bb e1 de 2f 3d
       -0.077508606 0.09779429 -0.007803434 0.042937163
000050 2c af c5 3b 9e 0b 1e bd 8d 10 c1 3d c2 f8 00 3b
       0.006032845 -0.038585298 0.09426985 0.0019679521
000060 11 2f 4f 3d 63 69 00 bd ea b5 3a bd c1 75 df 3c
       0.050581995 -0.031350505 -0.045583643 0.02727783
000070 ce a5 15 3d 59 d3 8c 3c ce 66 1f bd f0 8f a4 bd
       0.036535077 0.017190622 -0.0389164 -0.080352664
000080 16 62 89 3c 44 be dc bd 5e 62 3a 3d d8 5f a2 bd
       0.016770404 -0.10778478 0.045503967 -0.07928437
000090 21 f0 8c bd 3a 1f f2 3c e3 ca 09 bb fa 70 42 bd
       -0.068817385 0.029555906 -0.002102547 -0.047471024
0000a0 c9 00 1c bd 38 88 53 3c b8 60 28 bc f7 26 ee 3c
       -0.038086686 0.012910895 -0.010276966 0.029071314
0000b0 45 5c 15 bd 79 c8 7f bd 86 fb 1d bd cf 7c 77 3d
       -0.03646495 -0.062447045 -0.03856995 0.06042176
0000c0 7d 91 9d bd c6 2a a8 bd 8d 30 ba 3d 79 62 ca bd
       -0.07693765 -0.082112834 0.090912916 -0.098820634
0000d0 78 1c 75 3d e4 c6 af bd 4f 33 af bd eb ad 6a 3d
       0.059841603 -0.08582857 -0.08554708 0.057294767
0000e0 6e 90 4c bd 09 67 6f 3c 38 77 56 bd de 73 16 bc
       -0.049942426 0.014611968 -0.05235979 -0.009182898
0000f0 6e ba 44 bd ab 7c 16 bd 51 e4 1e bd 7d b3 70 bc
       -0.048029356 -0.036739986 -0.03879196 -0.014691231
000100 d5 5e 16 bd 99 9d 6a 3d d8 a8 01 bd cd 00 e5 3b
       -0.036711533 0.057279203 -0.031655163 0.006988621
000110 b2 4c 65 3b 25 f5 86 bd d5 dd fa bc 6e 6a 98 3d
       0.003498834 -0.06589726 -0.030623356 0.07442175
000120 1b 7f d6 bc b5 74 b2 3d aa 8e 89 bd cb b1 88 3d
       -0.026183655 0.08713666 -0.06716664 0.06674536
000130 c0 67 58 bd 72 84 89 3d 6d 89 7f bd a2 53 a1 bd
       -0.05283332 0.06714715 -0.06238692 -0.0787728
000140 4a f7 b8 bc 48 c2 76 bd 6c a4 8b 3d a1 d6 ad bd
       -0.022578854 -0.060243875 0.0681847 -0.08488203
000150 36 93 8c 3c 59 f5 df 3c b9 85 81 3d 63 f1 80 bd
       0.01716004 0.02733867 0.06324334 -0.06296041
000160 5f e3 0d bc 55 8d 91 bd 06 bf 85 3d f5 11 36 bd
       -0.0086601665 -0.07107035 0.065305755 -0.04445072
000170 d3 1c 0d bd 8e e2 cd bd 59 c8 62 bd e4 a5 5f bd
       -0.034451317 -0.100529775 -0.055366848 -0.054601565
000180 24 de 23 bc a6 1e 48 bd 97 dc a3 bd 98 22 d6 3c
       -0.010001693 -0.048857354 -0.080010585 0.026139542
000190 52 95 81 bd 89 01 56 3c d7 40 af bd aa dd 97 bd
       -0.06327309 0.013061889 -0.08557289 -0.07415326
0001a0 d5 4e 60 3d 45 29 b0 bd 20 58 92 bb 6b c2 76 3d
       0.05476268 -0.086016215 -0.0044660717 0.060244005
0001b0 ed 45 68 bd cb 6d 50 3c 32 23 ac 3d 9c 29 95 bd
       -0.05670731 0.012721489 0.084051505 -0.07283327
0001c0 90 55 36 bd 7f ce 11 3d 73 f8 8e 3d e3 d5 de 3c
       -0.044515193 0.03559732 0.06980982 0.027201599
0001d0 1a ec 1e bd 2c 76 28 3c d1 65 40 bd 1f 04 9b bd
       -0.038799383 0.010282081 -0.0469721 -0.075691454
0001e0 b6 5d ba bd ae 7b 69 bc 5a 38 ab 3d 38 cd 68 3d
       -0.09099905 -0.014250679 0.083603576 0.056836337
0001f0 c6 36 a9 3b 27 8a 2f bd 13 02 b6 3c ad 04 7e bd
       0.005164 -0.04285636 0.022217786 -0.062016178
000200 d2 01 5f 3d 1f 09 43 3d b6 b7 cc 3c 28 da 99 bd
       0.054445095 0.04761612 0.024989944 -0.07512313
000210 f0 69 df 3b 92 e4 ba bd cd db a2 3c 9b af 2e 3d
       0.0068180487 -0.091256276 0.0198802 0.04264794
000220 ba 31 3e bd 41 3a 92 3c d7 16 98 bc 62 1d 88 3c
       -0.04643414 0.017850043 -0.018565578 0.016615573
000230 90 d8 a1 3d 0d b3 8d 3c 02 bf c1 3d 01 86 58 bd
       0.07902634 0.017297292 0.0946026 -0.05286217
000240 aa 44 0e 3d dc d7 a4 bd a2 1a a9 3d 61 7a 5f bb
       0.034733452 -0.080489844 0.08257033 -0.0034100043
000250 8d 9e 12 bd cd 81 99 bd a8 52 ce bd 26 40 be bd
       -0.035795737 -0.07495461 -0.10074359 -0.09289579
000260 74 6e a0 bc 98 d0 1f bd ed 73 a2 3d 4b c4 86 bd
       -0.019583918 -0.03901729 0.07932267 -0.06580409
000270 ae 6a 4b bd 43 90 67 bd 24 ac 04 bd 6f 43 71 3d
       -0.049662285 -0.056534063 -0.03239073 0.0589022
000280 c7 3c 12 bd da f6 31 3d 6c 6a 47 bd 23 df d8 3c
       -0.035702493 0.043448307 -0.048685476 0.026473587
000290 0b f0 73 bd e5 76 73 bd a4 56 67 bd ca 79 e2 bc
       -0.059555095 -0.05943956 -0.05647911 -0.027645964
0002a0 a0 3a ae 3d db 48 4c 3d 84 72 43 bd 4f 33 30 3d
       0.085072756 0.049874168 -0.047716632 0.04301768
0002b0 8e 97 a7 bc b8 e3 9f bd 7c 3e 62 bd d9 eb 5e bd
       -0.02045801 -0.07807106 -0.05523537 -0.05442414
0002c0 d8 72 58 3d ee 4e 21 3d d4 91 23 3d 50 a9 2b bd
       0.0528439 0.039381914 0.039933994 -0.041909516
0002d0 60 89 28 bd 42 30 00 3d db fd e2 bc 93 d8 f1 3c
       -0.041146636 0.031296022 -0.027708938 0.029522216
0002e0 dd f4 8f 3d bc f9 d9 bc c2 f5 60 3d 7e 1b 9d bc
       0.07029126 -0.02660834 0.054921873 -0.019178148
0002f0 b9 de 44 3d 5b 06 be bd 09 16 b7 3c 09 4c b6 bd
       0.048063967 -0.09278556 0.022349374 -0.08901221
000300 c3 fb 96 bd 76 4e a4 bd bd 7d 84 3c ff 5e 6b bc
       -0.073722385 -0.08022778 0.016173238 -0.014365911
000310 fa c8 4a bd 42 be f1 3b 46 04 9c 3d c3 a8 22 3b
       -0.049508072 0.007377417 0.076180026 0.0024819828
000320 89 cf 07 bb 7c 8b 3c 3d c2 8a 94 3d 94 dd a0 bd
       -0.0020723066 0.04603146 0.072530285 -0.07854763
000330 3c 78 68 3d 5d 3c a6 3d a7 e9 81 3b 94 a8 06 bc
       0.05675529 0.08116982 0.003964621 -0.008218903
000340 ac 61 eb bc 37 45 53 3d 49 b5 ef bc d9 87 43 3d
       -0.028733097 0.05157968 -0.029261248 0.047736976
000350 e2 fc 59 bd ab e3 87 bd 57 ac 9a 3d 7d ad b8 bd
       -0.053219683 -0.06635221 0.075524025 -0.09017465
000360 d8 a0 51 bd 94 10 b1 ba fb 2b 9a 3d a1 f5 04 bc
       -0.051178783 -0.0013508969 0.0752792 -0.008115203
000370 15 a0 23 bd 52 8e 04 3d 2a 47 b8 bc af fc 5b 3c
       -0.039947588 0.03236229 -0.022494871 0.013426944
000380 1e 54 4c bd 89 44 14 bd 76 d0 15 3d 50 a0 89 bd
       -0.049884908 -0.036198173 0.036575757 -0.0672003
000390 3d 93 0d 3d ad 9a b8 bd 33 2d 63 bd a6 8e 99 3d
       0.034564245 -0.09013877 -0.055463027 0.07497911
0003a0 ab 7b 2f bd ea 2c f8 bc b3 ba b7 bd a5 03 15 3d
       -0.04284255 -0.030294854 -0.08971157 0.03638043
0003b0 fb da 8d 3d af 9e 38 3d 97 0e 08 3d d3 b5 09 bd
       0.06926533 0.045073207 0.03321704 -0.033620667
0003c0 32 ca 21 bd 9e 41 31 3d 68 f6 9a 3d 70 46 cc 3d
       -0.03949947 0.043275468 0.075665295 0.099743724
0003d0 03 01 b4 3d 1c ac 80 bd 15 94 aa 3c f9 38 5f bd
       0.087892555 -0.06282827 0.020822564 -0.054497693
0003e0 f4 59 89 bd 92 b0 4a bd bf 1d 62 3d 50 63 09 bc
       -0.0670661 -0.049484797 0.05520415 -0.008385494
0003f0 7b 51 d8 bc db b7 29 bd a5 06 da 3d 58 c7 ba bd
       -0.02640604 -0.041435104 0.106457986 -0.09120053

lstm2.bias_ih_l0 f4 [468]
000000 c1 71 ac bd f8 0a 96 3d e7 0a de 3b 91 0f 92 3c
       -0.08420134 0.07326311 0.006776202 0.017829688
000010 79 8b da ba bf d3 9f bb 55 32 42 3d fd 77 92 bd
       -0.0016673646 -0.004877537 0.04741128 -0.07151792
000020 55 0e a3 3c e1 71 81 bd 0a 53 93 3c ae 5b e8 bc
       0.019904295 -0.06320549 0.017983932 -0.028364029
000030 40 8a be bd 07 25 7d bd 00 c8 a5 3d 16 09 50 bb
       -0.09303713 -0.06180289 0.080947876 -0.0031743697
000040 ee 79 dd 3c d8 a5 d0 3c 33 31 91 39 db 08 01 3d
       0.02703568 0.025469705 0.0002769321 0.031502586
000050 86 1c 00 bd 84 fc 95 bd 01 09 27 3c 8c ad 22 bd
       -0.031277202 -0.07323554 0.010195018 -0.03971629
000060 8c 7d 93 3d b4 65 72 3d 56 4a 01 3c 04 83 f4 3c
       0.072016805 0.059179023 0.007891258 0.02984763
000070 3e 68 b7 bd 28 e9 3a 3c 89 bb 84 bd 52 5c d5 3d
       -0.089554295 0.011408128 -0.06481082 0.10417999
000080 c6 57 2a bd c7 3d a9 3d b8 e9 0a 3d 9f 39 70 3d
       -0.041587614 0.08263736 0.033914298 0.0586487
000090 3d 09 a2 3c 4d dc d9 3b 98 77 cd 3d f0 ec 03 3d
       0.019779796 0.0066485764 0.10032576 0.032208383
0000a0 d8 8d 28 bd 7f 4f 2c 3c 7d bd 92 3d 29 28 a8 bc
       -0.041150898 0.010517 0.07165048 -0.020526962
0000b0 f8 3c 1f bd 77 eb 96 bd c7 95 c1 3c 3a 15 9e bd
       -0.038876504 -0.0736913 0.02363099 -0.077188924
0000c0 3d 47 29 bd 38 5f dd 3c 77 d1 0f 3c a0 73 44 3d
       -0.041327704 0.027022943 0.008777968 0.04796183
0000d0 b1 a3 95 3d 7a ed 70 3d 90 28 9c 3a be fb b4 bd
       0.07306612 0.058820225 0.0011913944 -0.088370785
0000e0 76 e1 bb bd d6 f5 36 bc 7f eb 75 3d 57 c6 4a bd
       -0.09173863 -0.01116701 0.06003904 -0.049505558
0000f0 94 6c 9c bd e2 55 f1 3c 70 90 62 3d e0 dc b8 3d
       -0.07637897 0.029459897 0.055313528 0.090265036
000100 cd 0e 2e 3d 3f 2a 29 3d c6 ce ac bc 03 b8 b4 bc
       0.042494584 0.041300055 -0.021094691 -0.0220604
000110 18 f1 94 3d aa 33 63 3c b4 df 44 bd 5a c0 06 3d
       0.072725475 0.013867298 -0.048064902 0.032898284
000120 66 97 36 3b 36 15 b2 bd 60 8c 72 bd 95 d2 7c bb
       0.0027861237 -0.08695452 -0.059215903 -0.0038577665
000130 bc 92 8b 3c 33 0b 39 3d 79 88 72 3d 4e 95 10 3d
       0.017037742 0.045176696 0.05921218 0.035298638
000140 75 01 9b bd 3e 75 9c bd fb e0 8c bc b0 8e 15 bd
       -0.07568637 -0.0763955 -0.017197123 -0.03651303
000150 cb 24 69 bd 2b cb 24 39 2e a1 b6 3d 8f 0d 4b 3d
       -0.056919854 0.00015715945 0.08917461 0.049573477
000160 f6 30 6d bd 94 be 3f bd b0 ba 82 bc 84 2b 78 3d
       -0.05790802 -0.04681261 -0.01595816 0.060588375
000170 b2 56 03 bd 68 53 56 3c 31 4d f1 3c 29 e5 fc 3b
       -0.0320651 0.013081409 0.029455753 0.0077177477
000180 a0 47 dc 3b fb a8 4a 3d a1 0e e0 3c d4 d0 eb bc
       0.0067224056 0.04947756 0.027350726 -0.0287861
000190 3f f6 b3 3c 0d 55 8b 3d 26 91 b5 3d f0 42 9a 3d
       0.021968005 0.068033315 0.088655755 0.075322986
0001a0 1d b3 5b b9 a6 2b 9c 3d 68 c8 fd bc 1d 8c 4a 3d
       -0.00020952192 0.07625513 -0.03097935 0.04945003
0001b0 c0 8f f9 3c 74 e2 dd bd 0d 79 bc 3c 30 a5 22 bd
       0.030464053 -0.10834208 0.02300694 -0.039708316
0001c0 9b 16 97 bc 99 e2 b6 bc 28 c3 a8 bd 22 73 db bc
       -0.018443396 -0.022324847 -0.08240348 -0.026788298
0001d0 a8 6b 49 bc 65 0e 87 bd d1 f3 87 3d 05 aa 5f bd
       -0.012293734 -0.065945424 0.06638301 -0.054605503
0001e0 ef cc a2 bd f8 af 62 bd ec 50 6b 3d 58 53 07 3d
       -0.07949244 -0.055343598 0.05745022 0.033038467
0001f0 1f 60 a3 bb 5f 2e 97 3d f9 fc f6 3b bb 5f ab bd
       -0.0049858238 0.073818915 0.007537481 -0.083678685
000200 7a f6 e7 3c f4 74 18 bd aa 68 92 3d d4 a0 10 bd
       0.028315771 -0.03722091 0.07148869 -0.035309628
000210 01 1d 13 bd 68 a1 41 bd 9d 33 13 bd 16 a0 73 3d
       -0.035916332 -0.04727307 -0.035937894 0.05947884
000220 95 6e c5 bd d7 75 df bc 3c 10 8d 3d 27 9f 27 bd
       -0.096402325 -0.02727787 0.06887862 -0.040923264
000230 b6 38 c6 3d c1 89 2f bd 1d 01 a6 bd 07 4a ab bd
       0.096787855 -0.04285598 -0.08105681 -0.08363729
000240 3c ca b4 bd 82 15 91 3d ed 88 11 3d ee 10 be bd
       -0.08827636 0.070841804 0.035530973 -0.09280573
000250 94 07 28 bc 70 00 3c 3d 5b a5 dc 3b 6f d4 c9 3d
       -0.010255713 0.045898855 0.006733579 0.098549716
000260 b6 7b 97 3c f8 9d 0f bd 13 91 53 bb 32 b3 04 3d
       0.018491607 -0.03506276 -0.0032282516 0.032397456
000270 8a ab 11 3c c0 16 91 bd 54 db ef 3a 6d 50 a7 3d
       0.008890996 -0.07084417 0.0018299618 0.08169637
000280 5f fd 48 bd 8a e3 d0 bd 45 6f 97 3d a8 92 8f bd
       -0.04906976 -0.1019965 0.0739427 -0.07010394
000290 b5 05 1b bd 51 7d 68 bd 86 de 2e 3d 43 b9 83 3d
       -0.03784724 -0.056760136 0.042692684 0.0643182
0002a0 45 9f 8b bb 68 d9 b4 bd 18 9e 91 bd bb ba d2 bb
       -0.0042609298 -0.088305295 -0.07110232 -0.0064309514
0002b0 cb 73 f5 3b 4a b2 dd bd ef 1d cd bc ba 61 2b 3d
       0.0074906102 -0.108250216 -0.025038688 0.041841246
0002c0 7e df df bb f7 8b 98 3d e5 e2 5a 3d c7 ca 44 3d
       -0.0068320623 0.07448571 0.05343904 0.048044946
0002d0 25 d6 0c bd a8 3a cc bd cd 7f 6d bd f8 0b 86 bd
       -0.03438391 -0.09972125 -0.05798321 -0.065452516
0002e0 50 3f 18 3d 31 18 02 bd 47 86 c1 3c 98 0d 9f bc
       0.037169755 -0.031761352 0.023623599 -0.019415662
0002f0 8c 76 6b bc c8 77 5a bc 83 90 7a bd b5 3b a6 3a
       -0.0143715255 -0.013334222 -0.061172973 0.0012682589
000300 c5 42 52 bd a7 cf ab 3b 77 c2 62 3d 39 19 7a bd
       -0.051333208 0.00524326 0.055361237 -0.06105921
000310 66 4d c5 3b 62 cc 13 3c 60 9b 8a bd d2 c7 ba bc
       0.0060211895 0.009020897 -0.06767917 -0.02280036
000320 78 08 34 3c e2 d2 01 bd 4c 37 8e bd 17 60 98 3d
       0.010988347 -0.031695254 -0.06944141 0.07440203
000330 e5 c8 7b 3d 99 34 8e 3d 2d 39 1c bd f0 54 19 3d
       0.061470885 0.06943626 -0.038140465 0.03743452
000340 5c 21 71 bd bc ba c6 bd d3 dd 3c 3c 88 c0 16 3d
       -0.058869705 -0.097035855 0.011527496 0.036804706
000350 70 ee 02 3d 35 f5 c9 3c 9d 2b 33 bd 96 b8 60 bc
       0.031965673 0.024653057 -0.043742765 -0.013715884
000360 b8 ba 98 bd 68 2e 89 bc a3 b9 96 3d f4 73 0f bd
       -0.07457489 -0.016745761 0.07359626 -0.03502269
000370 c3 da 86 bd 91 7b 51 3c aa e1 ff bc 6f 1a 1e 3c
       -0.06584694 0.012785808 -0.031235535 0.009649857
000380 b3 d6 d8 bc 70 01 7a 3d 28 70 5a 3c 86 a2 4c 3d
       -0.026469564 0.061036527 0.013332404 0.049959682
000390 84 57 93 bd 4f 92 58 3c 4c 45 44 3d 24 3d c5 bd
       -0.07194427 0.013218476 0.04791765 -0.09630802
0003a0 bc 9d e9 3c 1d 5c 44 bc 74 07 53 3d 48 2b da 3c
       0.028517596 -0.011984852 0.05152078 0.026631966
0003b0 ab c2 87 3d 45 01 11 bd b5 37 a2 bc 49 f8 38 bd
       0.06628927 -0.0354016 -0.019801954 -0.04515866
0003c0 78 26 94 bd ef 92 75 bd c9 73 f1 bc 70 61 27 bc
       -0.072339 -0.05995458 -0.029474156 -0.010216102
0003d0 e7 2e 47 bd 5b b0 67 3d 23 bc 59 3c 96 a4 da bd
       -0.048628714 0.05656467 0.013289484 -0.106759235
0003e0 39 4e a1 bb 49 43 84 bd d5 67 7f 3d 09 2c 5c bd
       -0.004922655 -0.06458146 0.06235488 -0.053752933
0003f0 74 91 a0 3c c7 94 2b 3d 16 be 8e 3d 85 4d 7b 3c
       0.019600607 0.041889932 0.0696985 0.015338306
