Output Files/Best Model Weights/best_model_fold_torch (Quarterly).pt (torch, 358752 bytes, 9 tensors)

lstm1.weight_ih_l0 f4 [328, 21]
0.10939997 -0.06489506 -0.05238972 0.088436365 0.07856436 -0.03845375 0.025434228 0.097379126
-0.08544527 0.0783034 -0.094779916 -0.031109815 -0.05146269 -0.027418315 -0.026348565 -0.08176471
0.11386373 0.13762163 0.07721143 -0.055930838 0.09928746 -0.020108037 0.073188424 -0.10062634
-0.004137951 -0.094612464 0.067546904 -0.08922839 0.08356518 0.096604995 -0.05338461 -0.023345524
0.03598605 0.034505744 -0.05445148 -0.09883561 -0.020938328 -0.021578787 0.04178616 -0.102356136
0.027914908 0.039695024 -0.10265331 -0.11386716 -0.035692908 -0.005456011 0.08418024 -0.040632952
-0.06060912 0.08940338 0.021024166 0.0986972 0.016656887 -0.029189697 0.027256193 -0.027722329
-0.07979379 -0.09617129 -0.08355505 0.024841493 0.08943319 0.051144794 0.04327862 -0.0047953427
-0.10614305 -0.106026165 0.0029486208 0.10466729 -0.07427004 -0.026628051 -0.09389335 0.08604417
-0.09642989 0.0922941 -0.027006045 0.08770954 0.01426727 0.035774596 0.060023136 0.09222285
0.062880345 -0.045487694 -0.061543845 0.034327015 -0.019572675 -0.06333693 0.106198214 0.07799822
-0.006396141 -0.03695277 -0.022859985 -0.06618304 0.06452136 -0.07740838 -0.12774476 0.09618278
-0.02793132 0.09146217 -0.094405636 -0.04430641 -0.03546915 0.05261429 0.10193784 -0.048026446
-0.10051433 -0.09947031 0.09756354 -0.042489976 -0.107122086 -0.02029506 -0.06806408 0.07401231
-0.06846625 -0.037786685 -0.023826407 -0.005351577 0.011486774 0.08741341 -0.0074696396 -0.008678113
0.045902226 0.08556914 0.021875631 -0.002163578 0.009522771 -0.010340539 -0.04320918 0.018702107
-0.038491245 -0.07490484 -0.06574327 0.06462797 0.03516293 -0.019248798 -0.068862826 -0.014837624
0.022842405 -0.12600182 0.0006900727 -0.0655986 -0.013043854 -0.09308815 0.077591896 -0.11166945
-0.062354974 0.0032299208 0.032746468 0.027638234 -0.038185894 0.09166109 -0.0616293 0.06175641
-0.02953208 -0.027060548 -0.0017733613 -0.039722897 0.10841516 -0.03626568 0.031219792 -0.10867789
0.04799547 -0.12307145 -0.03500086 0.06429563 0.03807451 0.057008352 -0.029221248 0.095939614
-0.09764062 -0.038115203 0.095825806 -0.06533103 -0.088591695 0.021022087 -0.066358946 0.06464216
0.03002884 -0.018112626 -0.0395336 0.11592478 0.12595287 0.02618344 -0.053155206 0.14050551
0.029768322 0.044962782 0.07250445 0.058414202 0.13020039 -0.0955882 -0.007059156 0.13767566
0.06573114 0.08746076 0.08315084 -0.043102726 -0.016868377 -0.017221946 0.10693729 -0.009091903
0.03948283 0.07423174 -0.020374663 -0.01924781 0.09511398 0.15248036 0.13934086 -0.005050076
0.123566575 -0.03584406 0.021352597 0.055127658 0.105760716 0.018449146 -0.04888349 0.055823762
-0.0867912 0.107802026 -0.030333802 -0.041831918 0.024780331 0.040014427 0.04279988 -0.081598386
-0.028526107 0.030636922 0.063768886 0.13229543 0.0054454636 0.069795564 -0.03331955 -0.08424745
0.057531174 -0.012739854 -0.06746487 -0.05891051 -0.018059328 0.09942142 -0.041977637 -0.03396822
0.050899252 0.061246704 -0.10255139 -0.044617128 0.10913642 0.0013235824 0.12532608 0.033546645
0.12580201 0.12683009 0.122611254 -0.0042379526 -0.008080609 0.09632959 0.060847238 -0.10889532
00000000: 170d e03d b4e7 84bd 9a96 56bd 201e b53d
00000010: 5ae6 a03d ae81 1dbd 715b d03c b56e c73d
00000020: eefd aebd 885d a03d f91b c2bd 03da febc
00000030: 8bca 52bd 609c e0bc f2d8 d7bc 4274 a7bd
00000040: 6331 e93d afec 0c3e 0721 9e3d bc17 65bd
00000050: 3957 cb3d 9cb9 a4bc d0e3 953d 2f15 cebd
00000060: a697 87bb 2ec4 c1bd 0856 8a3d 60bd b6bd
00000070: 3924 ab3d d7d8 c53d d2a9 5abd 1d3f bfbc
00000080: 1c66 133d e555 0d3d 8408 5fbd 536a cabd
00000090: db86 abbc ffc5 b0bc f727 2b3d 18a0 d1bd
000000a0: cead e43c 4097 223d e63b d2bd 3033 e9bd
000000b0: ba32 12bd 56c8 b2bb b166 ac3d bd6e 26bd
000000c0: 4541 78bd 1f19 b73d df3a ac3c c221 ca3d
000000d0: 0674 883c 3b1f efbc 6148 df3c f019 e3bc
000000e0: ed6a a3bd 74f5 c4bd e91e abbd 6380 cb3c
000000f0: c028 b73d 347d 513d ec44 313d 4022 9dbb
00000100: 8761 d9bd 3f24 d9bd a63d 413b ce5b d63d
00000110: e41a 98bd 1223 dabc 284b c0bd ed37 b03d
00000120: 097d c5bd b004 bd3d c83b ddbc 0fa1 b33d
00000130: 45c1 693c 6288 123d d2da 753d 55df bc3d
00000140: 69c7 803d 4e51 3abd 6615 7cbd 7c9a 0c3d
00000150: e056 a0bc cbb6 81bd 737e d93d 88bd 9f3d
00000160: b896 d1bb ca5b 17bd dd44 bbbc f98a 87bd
00000170: c623 843d 4988 9ebd 86cf 02be 7afb c43d
00000180: 39d0 e4bc 8550 bb3d be57 c1bd a37a 35bd
00000190: 1948 11bd 1582 573d c9c4 d03d 61b7 44bd
000001a0: 75da cdbd 17b7 cbbd 65cf c73d f809 2ebd
000001b0: d362 dbbd d341 a6bc 2e65 8bbd c493 973d
000001c0: 0938 8cbd 36c6 1abd 992f c3bc 485c afbb
000001d0: 0633 3c3c cd05 b33d e1c3 f4bb a52e 0ebc
000001e0: f903 3c3d e03e af3d 8634 b33c d1ca 0dbb
000001f0: 6605 1c3c 5d6b 29bc 1cfc 30bd 2935 993c
00000200: ffa8 1dbd b567 99bd 68a4 86bd ab5b 843d
00000210: 0107 103d a8af 9dbc f407 8dbd 8119 73bc
00000220: ff1f bb3c 9f06 01be ffe5 343a 8f58 86bd
00000230: e4b5 55bc 00a5 bebd 80e8 9e3d f4b2 e4bd
00000240: ee67 7fbd 14ad 533b 2921 063d 9469 e23c
00000250: d068 1cbd cfb8 bb3d 016f 7cbd 4af4 7c3d
00000260: 43ed f1bc 15ae ddbc 2270 e8ba 7ab4 22bd
00000270: c408 de3d 528b 14bd a6c0 ff3c 8392 debd
00000280: e696 443d e20c fcbd 105d 0fbd 6dad 833d
00000290: 04f4 1b3d 9781 693d 6661 efbc fd7b c43d
000002a0: cef7 c7bd b01e 1cbd 5240 c43d 46cc 85bd
000002b0: 906f b5bd 8336 ac3c 33e7 87bd 1c63 843d
000002c0: 0bff f53c ee60 94bc fced 21bd f969 ed3d
000002d0: caf9 003e a77e d63c 46b9 59bd ade0 0f3e
000002e0: b2dc f33c e52a 383d 377d 943d bb43 6f3d
000002f0: 4053 053e bfc3 c3bd 7e50 e7bb d9fa 0c3e
00000300: 0c9e 863d a01e b33d fd4a aa3d 7c8c 30bd
00000310: 8d2f 8abc 0a15 8dbc f001 db3d 35f6 14bc
00000320: bfb8 213d cf06 983d c4e8 a6bc 95ad 9dbc
00000330: 1ecb c23d d023 1c3e 5faf 0e3e 1c7b a5bb
00000340: 7910 fd3d 39d1 12bd a4eb ae3c 8acd 613d
00000350: 1399 d83d aa22 973c 0e3a 48bd 75a7 643d
00000360: 96bf b1bd 4fc7 dc3d 987e f8bc f257 2bbd
00000370: 1f00 cb3c 2be6 233d ed4e 2f3d 0e1d a7bd
00000380: 95af e9bc 48fa fa3c 4399 823d 7478 073e
00000390: dc6f b23b faf0 8e3d 157a 08bd ed89 acbd
000003a0: cfa5 6b3d d2ba 50bc 062b 8abd 264c 71bd
000003b0: 28f1 93bc 759d cb3d bef0 2bbd 4322 0bbd
000003c0: bc7b 503d d3dd 7a3d 7706 d2bd 73c0 36bd
000003d0: ea82 df3d 0e7c ad3a 7b55 003e 3568 093d
000003e0: 3ed2 003e bfdf 013e 9c1b fb3d 86de 8abb
000003f0: 8864 04bc 7348 c53d f43a 793d 8204 dfbd

lstm1.weight_hh_l0 f4 [328, 82]
-0.026727812 0.045116503 0.06747241 0.0880139 -0.017806413 0.073818706 0.070388764 0.07018287
0.074084274 0.036193796 -0.05966419 -0.011282376 -0.042114362 0.06400844 -0.11173914 0.09468874
-0.046170045 -0.09413068 -0.06446039 0.046123173 -0.07276988 -0.028012712 0.08474079 0.10318755
-0.06403443 -0.08075538 0.037665274 -0.17122176 -0.070553936 -0.06267323 -0.03901543 0.0471098
-0.03291243 0.06627059 -0.10789226 -0.021639617 0.051969513 -0.057585604 -0.087535925 -0.020818975
0.02194009 0.08904397 0.04701187 0.12534599 -0.083542906 -0.029471504 -0.069906935 -0.12193622
0.085806265 0.034307368 -0.048336226 -0.043126773 0.03165867 0.023785686 -0.031460896 0.048365504
0.018983653 -0.06486336 -0.049309637 -0.023125848 0.08427128 0.07809056 0.048508577 -0.13254982
-0.017899543 -0.020864425 0.046032455 -0.012995748 -0.08843091 -0.05360423 0.07342826 0.030099096
-0.006675519 0.020118624 0.09139447 -0.07566684 0.08498616 -0.010069804 -0.017248357 -0.0758588
-0.03611011 0.034180652 0.0057613873 -0.08114081 0.07310497 -0.08601605 0.08802789 -0.053405456
0.061641105 -0.034049846 0.008045129 0.13524136 -0.010237173 0.052853994 -0.0077875666 0.0715454
0.015170373 -0.016491171 -0.040508248 0.021596339 0.05917032 -0.03835905 0.06489589 0.093764246
-0.076671116 -0.10874721 -0.08847151 -0.091424234 -0.06834648 -0.025071234 -0.08003732 -0.07202927
0.0614881 -0.04923172 -0.11128351 -0.05794574 0.078469306 0.019014167 0.022120735 0.0750834
0.060042884 0.082224056 0.0023262135 -0.06766498 -0.05234472 0.039233495 0.027354294 0.0072438973
0.0188629 0.11845926 -0.027944837 0.09897311 0.04023512 0.08035099 0.04655949 -0.087815404
0.040225517 -0.030486159 -0.12305896 -0.036468197 0.068454035 -0.05255177 -0.03661735 0.002622164
-0.088357545 0.024367055 0.044325635 -0.031932633 0.08714046 0.101381026 0.04767807 -0.035311196
0.017470727 -0.03251696 0.12228551 0.019187631 0.012038135 -0.04193224 -0.04954509 0.0037219818
0.10747937 0.091121316 -0.08933323 -0.07225524 -0.06985188 0.05863616 -0.08388536 -0.043717254
0.045494348 -0.025761878 -0.02971645 -0.091656595 -0.071902856 -0.052527376 -0.005054635 -0.05851378
0.08916853 -0.066662036 -0.023357462 -0.08950921 0.036160566 -0.045232657 -0.07704012 0.09188892
-0.06673714 -0.067096606 0.04873086 0.01438899 -0.052209776 -0.028636396 -0.08840634 -0.010559409
-0.11994512 0.08380614 0.009579176 -0.053135518 0.10701595 -0.10855124 0.013619922 -0.08370797
-0.09368739 -0.07125801 -0.0062828236 0.045180477 -0.09136455 0.03714199 0.09343251 0.019753402
0.08411224 0.09839883 -0.06236428 -0.08694187 0.06307164 -0.0076974076 -0.071496315 0.09872687
0.10682217 0.054630104 0.108367205 0.011058568 0.00021255547 -0.0980177 0.106891945 -0.013377701
-0.015155823 -0.077407666 -0.054219663 0.019447373 0.035185803 -0.099758424 -0.04368216 -0.0907619
-0.08345604 -0.086175084 0.12327905 -0.0008357544 -0.10004434 0.04462088 -0.035016906 0.045074116
0.13077332 0.0655767 0.05641293 -0.077571444 -0.10072911 -0.00690689 -0.11030293 -0.032548573
-0.026493937 -0.06523936 -0.062863596 -0.051252827 0.12515077 0.04676166 -0.05748005 -0.15839279
00000000: 49f4 dabc 15cc 383d fa2e 8a3d a240 b43d
00000010: c1de 91bc 432e 973d fc27 903d 09bc 8f3d
00000020: 7fb9 973d f23f 143d 7062 74bd b7d9 38bc
00000030: 1c80 2cbd db16 833d 7dd7 e4bd 2cec c13d
00000040: cd1c 3dbd 96c7 c0bd cf03 84bd a7eb 3c3d
00000050: 6008 95bd ea7a e5bc 948c ad3d ff53 d33d
00000060: 7c24 83bd 1463 a5bd e746 1a3d c254 2fbe
00000070: 957e 90bd d35a 80bd a5ce 1fbd 35f6 403d
00000080: 2fcf 06bd e0b8 873d 9ef6 dcbd 9145 b1bc
00000090: fcdd 543d e2de 6bbd 0946 b3bd 8e8c aabc
000000a0: b4bb b33c af5c b63d 858f 403d b35a 003e
000000b0: 8b18 abbd 396e f1bc 5e2b 8fbd b2b9 f9bd
000000c0: 32bb af3d e285 0c3d 35fc 45bd b3a5 30bd
000000d0: 86ac 013d 33da c23c 24dd 00bd e81a 463d
000000e0: 9b83 9b3c 15d7 84bd e7f8 49bd 6b72 bdbc
000000f0: 6c96 ac3d f2ed 9f3d eeb0 463d 24bb 07be
00000100: 10a2 92bc dfeb aabc 878c 3c3d 1eec 54bc
00000110: 441b b5bd 1c90 5bbd 8e61 963d 6192 f63c
00000120: 50be dabb d0cf a43c 062d bb3d 37f7 9abd
00000130: 390d ae3d d2fb 24bc 6d4c 8dbc dc5b 9bbd
00000140: 32e8 13bd 0301 0c3d 05ca bc3b 272d a6bd
00000150: 0fb8 953d 2f29 b0bd f747 b43d aebf 5abd
00000160: 627b 7c3d da77 0bbd b7cf 033c b67c 0a3e
00000170: d1b9 27bc 6e7d 583d d82e ffbb 6586 923d
00000180: 288d 783c 7e18 87bc faeb 25bd ceea b03c
00000190: 945c 723d 611e 1dbd 23e8 843d 7807 c03d
000001a0: bf05 9dbd dbb6 debd 8d30 b5bd a13c bbbd
000001b0: 3df9 8bbd 3062 cdbc 9bea a3bd 1584 93bd
000001c0: f2da 7b3d 33a7 49bd 9ce8 e3bd 8358 6dbd
000001d0: 84b4 a03d 99c3 9b3c 8b36 b53c 53c5 993d
000001e0: 87ef 753d 1665 a83d 6373 183b f093 8abd
000001f0: 6b67 56bd 4db3 203d 1d16 e03c 375e ed3b
00000200: 5e86 9a3c c59a f23d 92ec e4bc 6ab2 ca3d
00000210: 95cd 243d 0f8f a43d 2ab5 3e3d 90d8 b3bd
00000220: 83c3 243d 1cbe f9bc 5606 fcbd ad5f 15bd
00000230: a131 8c3d 8640 57bd 13fc 15bd 9dd8 2b3b
00000240: cdf4 b4bd 6b9d c73c cc8e 353d cbcb 02bd
00000250: b376 b23d dba0 cf3d 144a 433d 79a2 10bd
00000260: c51e 8f3c 8130 05bd d370 fa3d 612f 9d3c
00000270: 993b 453c 24c1 2bbd cbef 4abd 7eec 733b
00000280: 251e dc3d d09d ba3d 57f4 b6bd 8efa 93bd
00000290: 810e 8fbd 782c 703d 16cc abbd dd10 33bd
000002a0: 4858 3a3d 930a d3bc ea6f f3bc 74b6 bbbd
000002b0: ce41 93bd f226 57bd 5aa1 a5bb 25ac 6fbd
000002c0: fe9d b63d 1b86 88bd 2658 bfbc 9b50 b7bd
000002d0: 1a1d 143d e145 39bd 36c7 9dbd 4230 bc3d
000002e0: 7bad 88bd f269 89bd 039a 473d ccbf 6b3c
000002f0: ebd9 55bd e096 eabc 620e b5bd 5f01 2dbc
00000300: c9a5 f5bd 8ea2 ab3d faf1 1c3c a1a4 59bd
00000310: 2e2b db3d 1d50 debd 1826 5f3c 166f abbd
00000320: 2ddf bfbd b8ef 91bd 25e0 cdbb 2a0f 393d
00000330: 561d bbbd 3322 183d 8b59 bf3d e3d1 a13c
00000340: 0a43 ac3d 5385 c93d b071 7fbd 940e b2bd
00000350: b42b 813d 893a fcbb a96c 92bd 5031 ca3d
00000360: 95c5 da3d d1c3 5f3d a0ef dd3d ff2e 353c
00000370: 6de1 5e39 81bd c8bd 2aea da3d 252e 5bbc
00000380: 2150 78bc e987 9ebd 7015 5ebd 1950 9f3c
00000390: fd1e 103d 254e ccbd 11ec 32bd 60e1 b9bd
000003a0: 00eb aabd 907c b0bd ba79 fc3d 8716 5bba
000003b0: 0ce4 ccbd 62c4 363d e36d 0fbd a39f 383d
000003c0: 71e9 053e 144d 863d 3f11 673d c7dd 9ebd
000003d0: 104b cebd 3153 e2bb 81e6 e1bd a751 05bd
000003e0: d009 d9bc 379c 85bd a1be 80bd 7cee 51bd
000003f0: 8627 003e 2889 3f3d 3370 6bbd b831 22be

lstm1.bias_ih_l0 f4 [328]
0.10646069 -0.022426803 0.074757695 -0.090375245 0.017715408 -0.040447224 -0.009736246 -0.01239181
0.114218 0.09258663 0.015792347 0.08855371 -0.03436888 -0.0005495892 -0.07068009 -0.09905441
-0.08145912 0.043648474 -0.016490811 0.09417401 0.089336865 0.06416873 -0.076621756 -0.029049192
-0.048579972 -0.08215983 0.023234898 -0.028013492 -0.018498218 0.07841544 -0.0066893846 -0.03553782
0.11654947 0.02456366 -0.049775694 0.036189865 -0.09327075 -0.08339521 -0.021677757 -0.12125868
-0.097722076 -0.029457232 0.004837676 -0.046833195 0.0648767 0.018916912 -0.035744216 -0.0049495576
0.08430653 0.039448064 -0.005226956 0.04951501 -0.04246941 -0.031486195 0.12320718 -0.01665789
0.082133874 0.081688724 -0.0853053 0.08666158 0.015287172 -0.079389304 -0.036211748 -0.086928315
0.013487393 -0.01831656 0.10561079 0.100554496 -0.079505846 -0.06704916 -0.006060243 -0.015813362
-0.022690456 0.10448816 0.091192126 0.081156895 -0.0046974784 0.027639518 0.036856227 0.0067224023
-0.054841645 0.10817938 0.028619925 0.08324411 0.09988673 -0.06165123 -0.020733448 0.031840764
-0.07658346 -0.026681554 -0.082243495 -0.057108358 0.08586 0.054828223 0.07382351 -0.015422397
-0.11792983 0.045551766 0.056420222 0.07921484 -0.040993888 -0.07830393 -0.031170672 0.051661316
0.067787424 -0.101739 0.0060700546 0.054300174 0.040836465 0.06888687 -0.069562376 0.02128407
0.04370532 0.074215695 0.07876382 -0.044849478 -0.050795 -0.06040162 -0.056681693 0.048847545
0.0850087 -0.026931966 -0.104938954 -0.06377798 0.03921466 0.04119068 -0.09410109 -0.012158413
0.042809773 -0.097378775 -0.06892313 0.021372695 -0.07013037 -0.019447722 -0.073128276 0.11908359
-0.07919003 0.079651006 0.11875115 0.10938786 0.056629628 0.007508556 -0.10063439 0.034254342
-0.08600941 0.053714726 -0.09832965 -0.027531896 0.07217604 -0.11195426 -0.05164631 -0.0033117896
-0.09925317 -0.11470728 -0.035827942 0.08239335 -0.10020188 0.052373506 -0.024963504 -0.059151687
0.0426976 -0.048204016 -0.054842193 0.09925165 0.049880646 -0.05194522 -0.08324233 -0.12073867
0.032348935 -0.093517885 -0.02583277 -0.016817713 0.016040016 0.046756785 0.055722866 -0.006771294
0.10162745 0.02130421 0.024085637 -0.07459111 -0.022105072 0.099054195 -0.029560609 -0.076062985
-0.06813168 0.092167504 -0.013441571 0.0953283 -0.057283707 -0.023994911 -0.07887644 -0.076178834
-0.09049974 0.088385426 0.11148006 -0.048264645 0.031997576 0.011048819 -0.025121618 -0.07623862
0.07025037 -0.079984725 0.016733209 -0.04704784 -0.090890616 -0.051835187 -0.033741526 0.09372268
0.006924566 -0.04725363 0.057590377 -0.055200163 0.11069458 -0.03724834 0.09102329 0.09289736
0.06256224 0.08289126 -0.009233617 -0.04502926 0.106978685 -0.095053256 0.022752795 0.042130586
0.086492926 0.04620974 0.022075284 0.015566785 -0.036347378 0.113031864 0.08781903 0.033818543
-0.07290493 -0.02411222 0.07154063 -0.11657246 -0.08131768 0.0021098384 0.10958312 -0.042504102
-0.10300471 0.0043133264 0.05586681 -0.059727147 -0.070841774 -0.086324625 -0.038162258 -0.11913206
0.031292956 0.076903895 0.0030749051 -0.023476338 0.041906837 0.015936833 -0.032890953 -0.02924995
00000000: 1008 da3d 6ab8 b7bc 901a 993d a816 b9bd
00000010: e71f 913c fdab 25bd c784 1fbc 0507 4bbc
00000020: 20eb e93d 0f9e bd3d f45e 813c a65b b53d
00000030: 62c6 0cbd 4f12 10ba b9c0 90bd 0add cabd
00000040: 0ad4 a6bd bec8 323d bd17 87bc 4ede c03d
00000050: 3ff6 b63d e56a 833d deeb 9cbd 92f8 edbc
00000060: cbfb 46bd 6a43 a8bd 1d57 be3c 8d7c e5bc
00000070: 9389 97bc 4698 a03d a032 dbbb 1b90 11bd
00000080: 7db1 ee3d bb39 c93c 99e1 4bbd d33b 143d
00000090: bc04 bfbd 1ccb aabd 8d95 b1bc 7956 f8bd
000000a0: 8322 c8bd 4b50 f1bc 5e85 9e3b 2ad4 3fbd
000000b0: 13de 843d a4f7 9a3c 8768 12bd e62f a2bb
000000c0: e7a8 ac3d 4b94 213d e346 abbb 40d0 4a3d
000000d0: 67f4 2dbd abf7 00bd 0c54 fc3d 2176 88bc
000000e0: ce35 a83d 6b4c a73d 8cb4 aebd a07b b13d
000000f0: 0c77 7a3c dc96 a2bd c552 14bd 7907 b2bd
00000100: 3afa 5c3c 9c0c 96bc 784a d83d 84ef cd3d
00000110: f6d3 a2bd 1251 89bd 0195 c6bb 068b 81bc
00000120: 56e1 b9bc e3fd d53d f0c2 ba3d 9635 a63d
00000130: 4eed 99bb 456c e23c 8ef6 163d 9947 dc3b
00000140: a2a1 60bd 278d dd3d 5574 ea3c e37b aa3d
00000150: 6a91 cc3d 0086 7cbd 31d9 a9bc 766b 023d
00000160: cad7 9cbd 4693 dabc 476f a8bd 74ea 69bd
00000170: 5ed7 af3d 8f93 603d c830 973d 39ae 7cbc
00000180: 3285 f1bd 7d94 3a3d e418 673d 643b a23d
00000190: 35e9 27bd d05d a0bd a359 ffbc d19a 533d
000001a0: 22d4 8a3d 895c d0bd 4fe7 c63b dc69 5e3d
000001b0: 2344 273d 8f14 8d3d b876 8ebd ee5b ae3c
000001c0: 5a04 333d 66fe 973d ed4e a13d 16b4 37bd
000001d0: 6b0e 50bd b067 77bd 102b 68bd 5d14 483d
000001e0: 0b19 ae3d 6da0 dcbc 3cea d6bd 089e 82bd
000001f0: 8d9f 203d 8fb7 283d 13b8 c0bd 1534 47bc
00000200: 4d59 2f3d 866e c7bd 9227 8dbd ca15 af3c
00000210: 83a0 8fbd d450 9fbc 47c4 95bd 19e2 f33d
00000220: 622e a2bd 1120 a33d ce33 f33d be06 e03d
00000230: 78f4 673d 550a f63b 6719 cebd 484e 0c3d
00000240: b425 b0bd f903 5c3d 0e61 c9bd 928a e1bc
00000250: 08d1 933d 4648 e5bd 158b 53bd 9c0a 59bb
00000260: 3f45 cbbd a7eb eabd 52c0 12bd d8bd a83d
00000270: a536 cdbd 9a85 563d 4380 ccbc 0a49 72bd
00000280: aee3 2e3d 9371 45bd 35a2 60bd 7344 cb3d
00000290: a64f 4c3d 83c4 54bd f47a aabd d645 f7bd
000002a0: 5180 043d 4e86 bfbd 3f9f d3bc 4dc5 89bc
000002b0: 5a66 833c 0b84 3f3d a93d 643d bbe1 ddbb
000002c0: 0d22 d03d 2b86 ae3c 3e4f c53c 39c3 98bd
000002d0: b215 b5bc eddc ca3d 1729 f2bc e9c6 9bbd
000002e0: 9f88 8bbd 51c2 bc3d 093a 5cbc 7c3b c33d
000002f0: 52a2 6abd fa90 c4bc f989 a1bd a603 9cbd
00000300: ed57 b9bd 6b03 b53d a84f e43d 26b1 45bd
00000310: e40f 033d 1b06 353c dacb cdbc fe22 9cbd
00000320: 6ddf 8f3d 08cf a3bd 1514 893c 3cb5 40bd
00000330: dc24 babd 2251 54bd 8e34 0abd adf1 bf3d
00000340: 78e7 e23b 068d 41bd e3e3 6b3d 9119 62bd
00000350: d7b3 e23d b791 18bd 6b6a ba3d f940 be3d
00000360: a220 803d e5c2 a93d 9948 17bc 9a70 38bd
00000370: a417 db3d 48ab c2bd 1264 ba3c 1f91 2c3d
00000380: 3423 b13d 6d46 3d3d 3ad7 b43c d40b 7f3c
00000390: fde0 14bd 407d e73d 77da b33d 5085 0a3d
000003a0: 2e4f 95bd fe86 c5bc e583 923d 8bbd eebd
000003b0: e289 a6bd 3745 0a3b 1d6d e03d c818 2ebd
000003c0: 22f4 d2bd ce56 8d3b 99d4 643d 74a4 74bd
000003d0: 7e15 91bd f7ca b0bd 0750 1cbd 82fb f3bd
000003e0: 0b2d 003d ca7f 9d3d 5984 493b 7351 c0bc
000003f0: 81a6 2b3d f68d 823c aab8 06bd 979d efbc

lstm1.bias_hh_l0 f4 [328]
-0.001103992 0.037305187 0.03962814 0.09184491 -0.044993557 0.09585973 0.08605936 -0.039926127
-0.06704275 0.022414722 0.07997756 -0.043974794 0.11244714 0.03682452 -0.08659293 -0.008547686
0.09389711 0.0412193 -0.0629092 0.049600318 0.08216805 -0.078128465 -0.06828804 -0.020924436
-0.022865608 -0.06877666 -0.07229056 0.106858075 -0.10189396 -0.052273083 0.05676937 0.033641882
0.08725468 -0.011077941 -0.0894792 -0.0387216 -0.059445214 -0.06048062 0.039517656 0.039963312
0.07995072 -0.06518132 0.09365975 0.056650106 -0.07319961 -0.08776192 0.058134157 0.020234749
-0.019986851 0.103157714 0.015256172 0.018444357 0.05749246 -0.07839717 -0.049660187 0.10912738
0.06033041 0.05533664 0.02544366 -0.06470559 0.092598535 -0.020594275 -0.08273275 0.0086811995
0.06073686 0.0325687 -0.022439536 0.080681086 0.034715492 0.045051776 0.10479328 -0.060153052
-0.07260003 0.0045110816 0.054165717 -0.07565846 0.082341574 0.016299441 0.0507944 0.10306946
-0.09946194 -0.044197857 -0.092548914 0.037728537 -0.06697786 0.059500054 -0.06269656 0.06417683
0.03685024 -0.028054018 0.044742107 0.00903176 0.07535377 0.07716395 0.014556086 -0.019265277
-0.0058566597 -0.12102561 0.09060111 0.05721173 -0.052198503 -0.0041074716 -0.019582137 -0.08358067
0.09218161 0.097342946 0.09513991 0.107691936 -0.004222872 -0.043531854 0.070669815 0.041045938
-0.053222403 0.055859722 0.08037018 0.09331909 0.07073385 -0.01018793 -0.028416228 0.076944396
0.047607444 9.0597656e-05 0.013172671 0.04085222 -0.056864258 0.026065394 0.07785447 0.03399327
-0.094570264 0.05880775 0.07454149 0.021209676 0.037774887 -0.09988418 0.0572159 0.10422789
-0.00032040154 -0.079743974 0.10065244 0.076833144 -0.053937357 0.07612472 -0.11029616 0.09833915
-0.036398746 -0.038263027 -0.097091705 0.117835335 0.09108407 0.0782647 -0.07689715 -0.0412043
-0.07510657 0.06839373 -0.096972436 -0.035648044 -0.0169364 0.03486712 -0.029820573 0.0584023
-0.08125243 -0.05845633 0.037958477 0.068929605 -0.061855298 -0.056568347 0.037956737 0.07107908
-0.021605516 -0.10790646 -0.035953976 0.083605625 0.05104994 -0.10293848 0.027281964 -0.0031411806
-0.02033692 -0.08242655 0.028520597 -0.0023326597 -0.079073094 0.03728767 -0.097849004 -0.040100235
0.09003417 0.069928385 0.026710488 0.10019101 0.05438314 0.0946511 -0.07450323 0.100381985
0.090273365 -0.11640096 0.0137878265 0.056600444 0.05866278 0.07554412 -0.07854817 0.0029447728
-0.105840206 -0.038137857 0.09818761 -0.024242116 -0.0654234 0.02736027 0.078856155 0.060442507
-0.08411782 -0.012938691 -0.016570868 0.029614668 0.046475198 -0.019473331 -0.108852714 0.080302425
0.08496563 0.08023349 0.05339389 0.033760313 0.051386565 0.022456918 0.09871281 0.0236623
0.018337665 -0.03265374 -0.05063702 0.03463406 -0.019894931 -0.043594185 0.11318398 -0.034649037
0.028491274 -0.08946807 0.002676034 0.035027362 -0.04261668 0.010110809 -0.05511742 -0.10810873
0.10818449 -0.024133626 -0.066953026 -0.09438012 0.02626616 0.10577887 0.03284667 -0.034018163
-0.0756345 -0.067641675 -0.03938039 -0.071899876 -0.05190452 -0.057303358 0.010534148 -0.025032468
00000000: d3b3 90ba 53cd 183d 1e51 223d 2f19 bc3d
00000010: 2a4b 38bd 1b52 c43d e43f b03d 9489 23bd
00000020: b64d 89bd 149f b73c 46cb a33d ea1e 34bd
00000030: b04a e63d 4fd5 163d a257 b1bd 980b 0cbc
00000040: 214d c03d 92d5 283d 8ad6 80bd b429 4b3d
00000050: b947 a83d d101 a0bd 9ada 8bbd b969 abbc
00000060: a850 bbbc c7da 8cbd 130d 94bd 68d8 da3d
00000070: c8ad d0bd 4d1c 56bd 0087 683d 12cc 093d
00000080: 95b2 b23d 4180 35bc df40 b7bd 8a9a 1ebd
00000090: d37c 73bd 87ba 77bd 44dd 213d 92b0 233d
000000a0: 34bd a33d c97d 85bd afd0 bf3d f109 683d
000000b0: ade9 95bd 86bc b3bd 151e 6e3d 58c3 a53c
000000c0: 77bb a3bc 5a44 d33d 06f5 793c 9f18 973c
000000d0: 377d 6b3d b28e a0bd 7b68 4bbd 2d7e df3d
000000e0: 051d 773d aca8 623d 396f d03c 5d84 84bd
000000f0: 4da4 bd3d 53b5 a8bc ca6f a9bd 973b 0e3c
00000100: 37c7 783d c266 053d 1ed3 b7bc 203c a53d
00000110: d531 0e3d 3688 383d dc9d d63d 0c63 76bd
00000120: 53af 94bd b2d1 933b dfdc 5d3d d3f2 9abd
00000130: b3a2 a83d 6886 853c ca0d 503d 1516 d33d
00000140: b4b2 cbbd d008 35bd 498a bdbd 3d89 1a3d
00000150: b02b 89bd 54b6 733d 0e67 80bd 246f 833d
00000160: 47f0 163d 8ad1 e5bc 8043 373d f2f9 133c
00000170: 1453 9a3d 2208 9e3d a67c 6e3c 37d2 9dbc
00000180: 39e9 bfbb 46dc f7bd 138d b93d d956 6a3d
00000190: 19ce 55bd f897 86bb b86a a0bc 582c abbd
000001a0: b6c9 bc3d bd5b c73d b7d8 c23d 978d dc3d
000001b0: 0560 8abb 754e 32bd 56bb 903d c91f 283d
000001c0: bcff 59bd 2acd 643d 1f99 a43d 141e bf3d
000001d0: e9dc 903d 47eb 26bc 26c9 e8bc 0695 9d3d
000001e0: 0600 433d 3fff bd38 30d2 573c a854 273d
000001f0: 7fea 68bd 1887 d53c 2a72 9f3d 873c 0b3d
00000200: 0eae c1bd 65e0 703d 35a9 983d eabf ad3c
00000210: d7b9 1a3d 1490 ccbd 385b 6a3d 6f75 d53d
00000220: 91fb a7b9 cf50 a3bd de22 ce3d b25a 9d3d
00000230: 6bed 5cbd 47e7 9b3d f4e2 e1bd 0966 c93d
00000240: da16 15bd b1b9 1cbd 04d8 c6bd a753 f13d
00000250: 498a ba3d 3e49 a03d 417c 9dbd d7c5 28bd
00000260: 79d1 99bd 0312 8c3d 7c99 c6bd af03 12bd
00000270: 35be 8abc d3d0 0e3d 464a f4bc 4037 6f3d
00000280: ad67 a6bd e86f 6fbd 597a 1b3d f72a 8d3d
00000290: fb5b 7dbd 36b4 67bd 8678 1b3d e991 913d
000002a0: 0dfe b0bc 10fe dcbd 7a44 13bd 6d39 ab3d
000002b0: be19 513d 69d1 d2bd 6d7e df3c 44dc 4dbb
000002c0: 9d99 a6bc 40cf a8bd 07a4 e93c 89df 18bb
000002d0: 13f1 a1bd f5ba 183d 0f65 c8bd 2540 24bd
000002e0: d663 b83d 9d36 8f3d f4cf da3c f230 cd3d
000002f0: dbc0 5e3d 70d8 c13d 2695 98bd 1295 cd3d
00000300: 3ee1 b83d a063 eebd 56e6 613c ded5 673d
00000310: 6248 703d e0b6 9a3d dddd a0bd 17fd 403b
00000320: c0c2 d8bd 7136 1cbd 9616 c93d 6797 c6bc
00000330: b4fc 85bd a522 e03c 567f a13d 9092 773d
00000340: f745 acbd cefc 53bc a1bf 87bc 769a f23c
00000350: c75c 3e3d 8986 9fbc 2cee debd 9975 a43d
00000360: 7602 ae3d 7551 a43d 8db3 5a3d 4148 0a3d
00000370: b87a 523d 92f7 b73c f129 ca3d 71d7 c13c
00000380: df38 963c eebf 05bd c468 4fbd 72dc 0d3d
00000390: b2fa a2bc d18f 32bd 01cd e73d 26ec 0dbd
000003a0: 8866 e93c 093b b7bd 6760 2f3b da78 0f3d
000003b0: d48e 2ebd cea7 253c cec2 61bd 1c68 ddbd
000003c0: d48f dd3d e2b3 c5bc ab1e 89bd 5d4a c1bd
000003d0: 212c d73c 98a2 d83d 3b8a 063d a156 0bbd
000003e0: 43e6 9abd b887 8abd 554d 21bd 3e40 93bd
000003f0: d599 54bd edb6 6abd 6b97 2c3c e410 cdbc

lstm2.weight_ih_l0 f4 [328, 82]
-0.015827857 -0.044492338 0.08092799 0.04324981 -0.078643925 -0.09293598 -0.015023285 -0.04127709
0.03516318 0.03328555 0.06555737 0.059493802 -0.00010087104 -0.025459554 0.037938856 -0.018847588
0.07108079 -0.120375246 0.022850614 0.007845788 0.05668785 0.086190455 -0.020764489 0.00028439972
0.093727924 -0.09529008 -0.08952032 0.02963449 -0.080736354 -0.03266657 0.041089837 -0.055052962
-0.06424348 0.058303643 0.058249082 0.10821219 0.017245928 0.04986368 0.0827851 0.08282796
0.014082257 -0.008679775 0.103485614 0.014337695 -0.0045970217 0.06311162 -0.06318138 0.0848226
-0.100382715 -0.07324007 0.050561797 -0.07454427 -0.04229987 0.08836292 0.09257577 0.10542481
-0.04860372 -0.012710972 0.09297678 -0.105783895 0.014933373 0.039820988 -0.053323995 0.05957661
0.056928378 0.055419065 0.07022556 0.05289815 -0.058291733 -0.075506054 -0.04394748 -0.02918939
0.009264191 0.0038671982 -0.046489123 0.036175456 -0.016114574 0.09299366 0.033410534 0.07879077
-0.0035916402 0.021800863 -0.11199479 -0.09896398 0.032895125 -0.08676196 0.08800807 -0.09295477
-0.0070249946 0.035635505 -0.020020327 0.031203019 -0.050032426 0.06470536 0.02406119 -0.10957758
-0.054822486 0.018261226 -0.11654689 0.048544265 -0.07650346 -0.052277017 0.07772197 -0.03568437
0.057998497 0.0032961885 0.012477508 -0.025990495 -0.054611295 0.061112896 0.06366382 0.0930834
-0.028180767 0.030575098 0.044666834 -0.13131635 0.11034159 -0.0066937855 -0.059474643 0.07456228
0.009829924 -0.102154225 -0.0639987 0.01848886 -0.015214636 0.058472347 -0.041884117 -0.118075244
-0.0829969 -0.10373549 -0.07299209 -0.024863878 0.07618208 -0.10603696 -0.07553249 -0.0885813
-0.01615814 -0.07552681 0.030731004 0.052574664 0.12016659 -0.01169617 0.009721775 0.056624457
-4.7243015e-05 0.03670936 -0.07652106 0.048777252 0.11070913 -0.000731696 0.06342056 -0.07067462
0.037193354 0.0065159537 -0.04737201 0.022595963 0.047086377 -0.06636014 0.09927656 -0.09523073
0.057047036 -0.0874915 -0.08220375 0.07100909 -0.016621634 -0.10508592 -0.03609429 0.006898145
-0.09128969 -0.10296409 -0.0493128 0.05044395 -0.012096934 0.018189104 0.024180364 0.06786055
-0.09148466 0.00678703 -0.00605804 -0.049887203 -0.02807334 0.06203379 -0.02934874 -0.046737995
-0.004571767 0.082138695 -0.07947642 0.01586198 0.033864867 -0.03443024 0.097249635 0.059511065
0.0033916663 0.10974538 -0.029480493 -0.032777715 -0.0545304 -0.117091425 0.064659074 -0.08810123
0.09846824 -0.02016837 0.08673854 -0.11168995 0.08452429 0.036249097 0.0031728074 -0.024574526
-0.029810838 -0.035448197 -0.018529544 -0.09537241 0.085724354 -0.0640112 -0.07595803 -0.010086794
-0.08072428 0.086942956 0.037698198 0.10352666 0.0657843 0.09053638 0.11020194 -0.014440393
0.05405745 0.021339666 -0.025430946 -0.073945425 -0.069561355 -0.087716326 -0.018620262 0.026371341
0.09218542 -0.101484686 -0.09392064 -0.08960888 -0.018467821 -0.10254439 0.002843689 -0.0283303
0.12447937 0.02682712 -0.07650044 -0.09419057 -0.01807076 0.02525654 -0.016662098 -0.072264776
0.006284516 0.039517064 -0.04699736 0.07804983 -0.0012649578 -0.05760439 0.03668471 0.038188282
00000000: 6ca9 81bc 993d 36bd 93bd a53d b626 313d
00000010: 1110 a1bd 3855 bebd 3924 76bc 2a12 29bd
00000020: 4407 103d 6e56 083d f142 863d c6af 733d
00000030: ba8a d3b8 8e90 d0bc c665 1b3d 4266 9abc
00000040: ce92 913d 4c87 f6bd 3631 bb3c 9f8b 003c
00000050: 8531 683d 9f84 b03d 4a1a aabc 7c1b 9539
00000060: 6df4 bf3d 7227 c3bd 6e56 b7bd 08c4 f23c
00000070: 1a59 a5bd 62cd 05bd d14d 283d 377f 61bd
00000080: 1692 83bd cdcf 6e3d 9796 6e3d 5a9e dd3d
00000090: 5547 8d3c dc3d 4c3d 3c8b a93d b5a1 a93d
000000a0: 44b9 663c 9d35 0ebc 44f0 d33d a7e8 6a3c
000000b0: 9da2 96bb aa40 813d 3d65 81bd 79b7 ad3d
000000c0: 7495 cdbd e4fe 95bd e319 4f3d abaa 98bd
000000d0: a142 2dbd 9ef7 b43d 5e98 bd3d f6e8 d73d
000000e0: b214 47bd ae41 50bc 9c6a be3d 3aa5 d8bd
000000f0: 1bab 743c 551b 233d 436a 5abd 9a06 743d
00000100: bb2d 693d 1aff 623d 6bd2 8f3d bbab 583d
00000110: 50c3 6ebd eba2 9abd 4602 34bd 961e efbc
00000120: d5c8 173c d270 7d3b 616b 3ebd b72c 143d
00000130: b602 84bc 7673 be3d 7cd9 083d 0e5d a13d
00000140: b961 6bbb b997 b23c 865d e5bd a1ad cabd
00000150: 0abd 063d 41b0 b1bd 933d b43d 125f bebd
00000160: ed31 e6bb 89f6 113d ab01 a4bc 799d ff3c
00000170: cdee 4cbd 3e84 843d f91b c53c 366a e0bd
00000180: 8b8d 60bd 9198 953c 23b0 eebd 5ad6 463d
00000190: d9ad 9cbd 6d20 56bd b22c 9f3d c629 12bd
000001a0: d58f 6d3d de04 583b 766e 4c3c 05ea d4bc
000001b0: 18b0 5fbd 8451 7a3d 2d62 823d 82a2 be3d
000001c0: 5adb e6bc a178 fa3c 92f4 363d cb77 06be
000001d0: c6fa e13d 8b57 dbbb af9b 73bd 1cb4 983d
000001e0: b10d 213c 3c36 d1bd c011 83bd f375 973c
000001f0: cf46 79bc b380 6f3d ae8e 2bbd 6fd1 f1bd
00000200: 47fa a9bd 4673 d4bd e07c 95bd 55af cbbc
00000210: 5a05 9c3d e829 d9bd c7b0 9abd 1d6a b5bd
00000220: 135e 84bc cdad 9abd 96bf fb3c 8858 573d
00000230: e719 f63d 4ba1 3fbc 1448 1f3c 0cef 673d
00000240: cd26 46b8 8e5c 163d 13b7 9cbd a8ca 473d
00000250: 78bb e23d 4acf 3fba a3e2 813d dbbd 90bd
00000260: 0f58 183d c883 d53b 2709 42bd 2b1b b93c
00000270: a5dd 403d d3e7 87bd 8251 cb3d 5408 c3bd
00000280: 27aa 693d be2e b3bd 715a a8bd 376d 913d
00000290: 182a 88bc 4937 d7bd 9bd7 13bd d609 e23b
000002a0: 17f6 babd d6de d2bd 38fc 49bd 519e 4e3d
000002b0: 3832 46bc 5101 953c e615 c63c 79fa 8a3d
000002c0: 4f5c bbbd bc65 de3b 8682 c6bb 8656 4cbd
000002d0: 10fa e5bc 2517 7e3d c56c f0bc 5770 3fbd
000002e0: c3ce 95bb 5538 a83d 89c4 a2bd fcf0 813c
000002f0: e3b5 0a3d b906 0dbd d12a c73d e0c1 733d
00000300: b846 5e3b 30c2 e03d 1381 f1bc ed41 06bd
00000310: 455b 5fbd a1cd efbd fa6b 843d 6b6e b4bd
00000320: b7a9 c93d 2338 a5bc faa3 b13d b3bd e4bd
00000330: 121b ad3d ef79 143d e0ee 4f3b 8450 c9bc
00000340: dc35 f4bc 2132 11bd 45cb 97bc 9c52 c3bd
00000350: 4090 af3d 4e18 83bd e28f 9bbd 1543 25bc
00000360: c552 a5bd 260f b23d 6d69 1a3d c905 d43d
00000370: ebb9 863d 236b b93d 8eb1 e13d 6697 6cbc
00000380: 586b 5d3d 86d0 ae3c 8f54 d0bc b370 97bd
00000390: 2f76 8ebd 9ea4 b3bd 8589 98bc b608 d83c
000003a0: b6cb bc3d 34d7 cfbd 7759 c0bd dc84 b7bd
000003b0: d449 97bc cb02 d2bd 2f5d 3a3b f214 e8bc
000003c0: 0aef fe3d 8cc4 db3c 43ac 9cbd fce6 c0bd
000003d0: 2109 94bc cee6 ce3c f47e 88bc 8eff 93bd
000003e0: 57ee cd3b a5dc 213d 4e80 40bd 97d8 9f3d
000003f0: f1cc a5ba 95f2 6bbd b542 163d 516b 1c3d

lstm2.weight_hh_l0 f4 [328, 82]
-0.07586731 0.07536879 0.07429721 -0.12066617 0.115518786 0.07735223 -0.03384309 0.058681745
0.11550551 -0.016598282 -0.10055673 0.05832859 -0.011573571 -0.113877654 -0.061831467 0.06996843
-0.117400214 -0.10288983 0.054013047 -0.007584285 0.07753379 0.0049169078 0.05230058 -0.08867444
0.013309423 0.02479667 -0.071082786 0.004861017 0.031535972 0.103108674 -0.0046301796 -0.04658221
-0.036127955 -0.09707182 -0.001042894 -0.041331895 -0.09328612 -0.109586164 0.12078528 -0.059768453
0.023645066 0.05310135 -0.073652565 -0.047135487 -0.0055980934 -0.010277433 -0.045083813 0.041368674
0.11120294 -0.08602211 -0.010988994 0.05985036 0.03402968 0.03511928 -0.077698655 0.07444813
0.07682423 0.0402065 0.007882397 -0.016413465 0.019179394 0.013616313 0.089571655 0.003210867
-0.063650765 -0.09943581 -0.078394555 -0.11381369 0.093549944 0.07247167 0.013917691 0.024112567
-0.12271881 -0.018033702 -0.055313792 0.024455402 -0.05601025 -0.12065934 -0.0019636925 0.016094957
0.09938691 -0.002553847 -0.08520136 -0.06322749 -0.058577813 -0.007717486 -0.113749005 0.07753334
0.09271911 0.1193485 0.01987854 0.10722918 -0.07489485 0.040533625 -0.021894868 0.04176567
0.032037884 -0.08450691 -0.09791188 0.03309057 0.118172586 -0.031958565 -0.07268075 0.013596746
-0.11746638 -0.044525765 -0.036469873 0.0063106203 0.06115709 -0.013105718 -0.0174225 -0.07622698
-0.024300292 -0.019272909 -0.014095584 -0.091957 0.028969143 0.04167712 -0.11111448 0.07987809
-0.046332378 0.034828898 -0.033635244 0.061175395 0.03462961 0.0736782 -0.09792348 -0.091270775
0.09907648 0.03176233 0.094198994 -0.051593836 -0.07941333 -0.033194363 0.07281797 0.052617215
0.027999178 -0.06284933 0.0040237894 0.08779435 -0.093107335 0.12303743 0.100139536 -0.020823656
0.10026357 -0.00213948 0.07378156 -0.031729005 -0.016408764 0.065813646 -0.032588042 -0.078862354
-0.045728534 0.08359974 0.035227183 0.028223997 -0.0492134 0.101000324 -0.016421854 -0.0017269839
0.09156893 -0.10155598 -0.011111694 -0.10246638 -0.10773953 -0.0031112104 0.11141052 0.05417648
-0.06549009 -0.09870413 -0.009896713 -0.04014129 0.023524506 0.10734692 -0.065256715 -0.06531601
-0.09739185 0.0656371 0.021771668 -0.001376661 0.02155776 -0.039877586 0.03099048 -0.036185186
-0.06685233 0.09450208 0.05620894 0.08610832 0.01728664 -0.037281457 0.10780522 0.01955452
0.072128244 -0.052202985 0.05962881 -0.021959348 -0.05526215 -0.05717038 -0.083023496 0.033768054
-0.046777222 -0.067412056 -0.07485311 0.0809639 0.04985466 0.050200608 0.025233326 0.04475648
0.016201142 0.07964936 0.027452754 -0.07819585 0.061214622 0.022235414 0.052061457 0.070133254
0.06982209 -0.101109184 0.07149208 -0.06109186 -0.026754268 -0.051845618 0.083547145 0.010447953
-0.0703527 -0.059422784 0.017187398 0.028494043 0.09784365 0.08214007 0.0696847 -0.0020176815
-0.039900716 -0.004079438 -0.0017392251 0.07192337 0.002344373 0.036112882 0.002389252 -0.05910572
-0.08267729 -0.022660293 0.009004313 0.022278046 0.06594412 0.039116763 -0.059981123 -0.01617839
0.09258154 -0.0013267187 0.039029114 0.0727062 -0.031438008 0.09853792 0.095334515 0.055022605
00000000: 5260 9bbd f45a 9a3d 2329 983d d31f f7bd
00000010: 1d95 ec3d d96a 9e3d 0d9f 0abd 455c 703d
00000020: 278e ec3d 1ff9 87bc b0f0 cdbd f6e9 6e3d
00000030: 139f 3dbc b038 e9bd fe42 7dbd 9c4b 8f3d
00000040: 866f f0bd e7b7 d2bd c93c 5d3d 9885 f8bb
00000050: 09ca 9e3d 031e a13b 2239 563d f29a b5bd
00000060: c40f 5a3c 6322 cb3c da93 91bd 2b49 9f3b
00000070: dd2b 013d a42a d33d c3b8 97bb fdcc 3ebd
00000080: e8fa 13bd 97cd c6bd b7b1 88ba a24b 29bd
00000090: cb0c bfbd b66e e0bd 465e f73d c4cf 74bd
000000a0: 4cb3 c13c cd80 593d 28d7 96bd 2411 41bd
000000b0: 3670 b7bb ae62 28bc cea9 38bd 3372 293d
000000c0: 5ebe e33d 5c2c b0bd 2e0b 34bc a725 753d
000000d0: b562 0b3d 3cd9 0f3d 7920 9fbd 4378 983d
000000e0: 0656 9d3d 92af 243d 2b25 013c 8875 86bc
000000f0: 1b1e 9d3c f516 5f3c 5871 b73d 696d 523b
00000100: 555b 82bd 01a5 cbbd 538d a0bd 2717 e9bd
00000110: 1d97 bf3d 076c 943d 0707 643c b887 c53c
00000120: 0054 fbbd 6abb 93bc b790 62bd b256 c83c
00000130: 016b 65bd 3e1c f7bd 4bb1 00bb 92d9 833c
00000140: 5d8b cb3d 715e 27bb 0d7e aebd 6a7d 81bd
00000150: 4aef 6fbd f7e2 fcbb 3df5 e8bd cdc9 9e3d
00000160: 84e3 bd3d fd6c f43d 52d8 a23c f99a db3d
00000170: 7962 99bd 9606 263d de5c b3bc 7b12 2b3d
00000180: 283a 033d f511 adbd 0686 c8bd fa89 073d
00000190: 7804 f23d fce6 02bd a5d9 94bd e3c4 5e3c
000001a0: 3792 f0bd a660 36bd 6f61 15bd 52c9 ce3b
000001b0: db7f 7a3d 5eb9 56bc a1b9 8ebc e41c 9cbd
000001c0: 6811 c7bc 38e2 9dbc 2af1 66bc f453 bcbd
000001d0: b250 ed3c a1b5 2a3d fd8f e3bd 2097 a33d
000001e0: 05c7 3dbd bfa8 0e3d 1cc5 09bd 0d93 7a3d
000001f0: c7d7 0d3d 99e4 963d 1b8c c8bd 2cec babd
00000200: 9ce8 ca3d 3819 023d 67eb c03d 0f54 53bd
00000210: 75a3 a2bd d0f6 07bd 9621 953d 2685 573d
00000220: 885e e53c 26b7 80bd fed9 833b 86cd b33d
00000230: 0faf bebd 0cfb fb3d f515 cd3d 5f96 aabc
00000240: fd56 cd3d 8536 0cbb c91a 973d 46f6 01bd
00000250: ac6b 86bc 4ec9 863d 0a7b 05bd 9682 a1bd
00000260: d84d 3bbd 5736 ab3d 614a 103d 0336 e73c
00000270: fd93 49bd 42d9 ce3d 2087 86bc f75b e2ba
00000280: 7e88 bb3d 95fc cfbd d30d 36bc e5d9 d1bd
00000290: 8ba6 dcbd 73e5 4bbb 332b e43d 28e8 5d3d
000002a0: ab1f 86bd 6425 cabd d325 22bc 316b 24bd
000002b0: 77b6 c03c b4d8 db3d 50a5 85bd 66c4 85bd
000002c0: 6175 c7bd be6c 863d 7f5a b23c 1471 b4ba
000002d0: e699 b03c ae56 23bd bfdf fd3c eb36 14bd
000002e0: e0e9 88bd 4e8a c13d 583b 663d 8f59 b03d
000002f0: b69c 8d3c 71b4 18bd fcc8 dc3d cd30 a03c
00000300: f9b7 933d ccd2 55bd 573d 743d 17e4 b3bc
00000310: 905a 62bd 7d2b 6abd 3908 aabd 5f50 0a3d
00000320: 7999 3fbd 550f 8abd 964c 99bd 67d0 a53d
00000330: 6634 4c3d 279f 4d3d 1fb6 ce3c 9252 373d
00000340: 42b8 843c 341f a33d 99e4 e03c 2525 a0bd
00000350: 2fbc 7a3d 0b27 b63c 653e 553d 06a2 8f3d
00000360: e2fe 8e3d 5512 cfbd 716a 923d 753b 7abd
00000370: c42b dbbc 125c 54bd c41a ab3d e42d 2b3c
00000380: 1415 90bd 4e65 73bd 96cc 8c3c 576c e93c
00000390: 4062 c83d 0e39 a83d dab6 8e3d 143b 04bb
000003a0: ef6e 23bd ceac 85bb b6f6 e3ba 8f4c 933d
000003b0: 0da4 193b 1aeb 133d ff94 1c3b d718 72bd
000003c0: b652 a9bd 14a2 b9bc d386 133c 7380 b63c
000003d0: b60d 873d e638 203d c4ae 75bd 8b88 84bc
000003e0: 649b bd3d 4be5 adba fedc 1f3d fde6 943d
000003f0: 24c5 00bd 40ce c93d be3e c33d 625f 613d

lstm2.bias_ih_l0 f4 [328]
-0.09940054 -0.09061204 0.04460636 -0.032560367 -0.07735483 0.08386152 0.00038285207 -0.04227006
0.071535796 -0.022598175 -0.089890696 0.05495497 0.03840597 0.0760078 -0.02542782 0.036233228
0.0009148048 -0.0742244 -0.012952448 0.105162136 -0.01573736 0.003517097 0.052991055 -0.037817553
-0.020824771 -0.088574335 0.059191316 -0.06895824 -0.10971389 -0.03892924 0.058451112 -0.05885473
-0.06944272 -0.09782437 0.09818935 0.02295236 0.0083074095 0.030238692 0.04570523 -0.057143938
0.023082461 -0.047907103 0.045603696 -0.063087195 -0.064335816 0.1117399 0.013287041 0.06598977
0.06101256 -0.028210666 -0.04445636 -0.09268521 -0.105793916 -0.052661374 -0.007251937 0.009806541
0.04306163 -0.03997018 0.07096599 0.07552983 0.10807971 0.07261153 -0.0912602 -0.0800606
-0.022948056 0.0032446915 -0.11865153 -0.015339623 0.026569353 -0.06796784 -0.04008732 -0.050361346
0.024201872 -0.0905989 -0.04790235 0.04628598 0.06871107 -0.099323794 -0.03644389 0.0031190806
0.021099968 0.10706704 0.053023037 0.039211947 -0.01680602 0.025931796 0.008087966 -0.1109822
0.04265989 0.036904953 0.016702706 0.023595367 0.054720026 0.025016986 -0.0009649753 -0.04376067
-0.044680417 -0.11161241 -0.031208145 0.054865453 -0.039111968 0.029589983 0.07869998 0.034565732
0.04761016 -0.058259495 0.049115766 -0.04872143 -0.011919688 0.07225456 -0.043500546 0.1197072
0.042451948 0.08352872 -0.098290965 0.08862545 0.005671245 -0.10713342 0.015877644 -0.05398842
0.054070417 -0.010910163 0.0397222 -0.038981486 0.025449948 -0.08700742 0.063935556 0.119882
9.649055e-05 0.08187677 0.038173135 0.035909217 0.110461034 -0.086639315 -0.053169608 0.02902065
0.10444426 0.04668467 0.06516945 -0.062977456 0.021785825 0.116203845 -0.03330778 0.046307545
-0.014955395 -0.012136776 -0.013593158 0.043893825 -0.057942774 -0.08703316 0.07963107 -0.022054804
0.029446872 0.08066653 0.04065496 0.044145826 0.02046872 0.06384561 -0.11468051 -0.06816591
0.07231301 -0.06417592 0.08130119 -0.0779588 -0.08105216 0.05583165 -0.014887352 0.02159208
0.01839094 -0.0791871 0.023089815 -0.0054625673 -0.06641668 0.095530786 0.040688023 -0.051075034
-0.029941566 -0.07292354 -0.090350665 -0.044986136 0.09245227 -0.027894663 -0.03235745 0.05003986
0.00800234 -0.12513337 -0.032035742 0.071157 -0.095147975 0.05173282 -0.07000309 -0.028791001
0.04182226 -0.049141172 0.044872917 0.037641186 -0.028808009 0.080484964 0.018035408 0.038965255
-0.040034514 0.10923266 0.09860639 -0.06678801 0.117661126 0.031186214 -0.065769084 -0.055306636
-0.080211766 0.067550875 0.09113157 0.07196009 0.06759119 0.088399634 0.045913156 0.08167805
0.059110157 0.093462065 -0.04733861 -0.102819696 0.11808307 -0.025421537 0.0067772376 0.12617777
0.09007059 0.055610772 -0.009041837 0.020398634 0.018652108 0.02098993 0.022019677 0.117041476
-0.08692891 0.0910165 -0.032073997 0.06006203 0.021475038 -0.043823794 -0.00955469 0.1266603
0.044120263 -0.06560204 0.027820874 0.053872705 -0.09635633 -0.07576976 -0.04122553 -0.0819458
0.05953936 0.1005807 0.0015838551 0.039294325 -0.022763172 0.06775138 -0.058433212 -0.01458284
00000000: 8392 cbbd ce92 b9bd 29b5 363d 055e 05bd
00000010: 366c 9ebd 97bf ab3d 89b9 c839 5f23 2dbd
00000020: 5c81 923d cf1f b9bc 9d18 b8bd 7618 613d
00000030: 944f 1d3d faa9 9b3d 014e d0bc 4b69 143d
00000040: 83cf 6f3a f602 98bd 8136 54bc 3f5f d73d
00000050: a3eb 80bc 197f 663b 260d 593d 94e6 1abd
00000060: b698 aabc 7666 b5bd 9872 723d fa39 8dbd
00000070: adb1 e0bd 4474 1fbd 6f6a 6f3d a811 71bd
00000080: fc37 8ebd 2558 c8bd 7f17 c93d 9606 bc3c
00000090: cd1b 083c 22b7 f73c 6835 3b3d c30f 6abd
000000a0: 6e17 bd3c 3d3a 44bd f1ca 3a3d dc33 81bd
000000b0: 7fc2 83bd e4d7 e43d e4b1 593c a525 873d
000000c0: 4ee8 793d 0e1a e7bc df17 36bd bed1 bdbd
000000d0: 7baa d8bd 74b3 57bd a8a1 edbb 9dab 203c
000000e0: 6461 303d c5b7 23bd 9e56 913d 62af 9a3d
000000f0: e558 dd3d 5bb5 943d a1e6 babd d0f6 a3bd
00000100: 90fd bbbc e4a4 543b 93ff f2bd 0b53 7bbc
00000110: f9a7 d93c b932 8bbd 9a32 24bd b347 4ebd
00000120: 0143 c63c eb8b b9bd 4135 44bd 5e96 3d3d
00000130: 64b8 8c3d 466a cbbd 3046 15bd 7d69 4c3b
00000140: d7d9 ac3c f745 db3d af2e 593d b59c 203d
00000150: c7ac 89bc eb6e d43c 6383 043c a34a e3bd
00000160: 23bc 2e3d a629 173d 1dd4 883c 124b c13c
00000170: 1b22 603d 6cf0 cc3c 65f6 7cba 633e 33bd
00000180: d002 37bd 0c95 e4bd 39a8 ffbc 99ba 603d
00000190: df33 20bd b166 f23c 752d a13d cc94 0d3d
000001a0: df02 433d 82a1 6ebd 9d2d 493d 1f90 47bd
000001b0: cc4a 43bc 33fa 933d a12d 32bd 0c29 f53d
000001c0: 18e2 2d3d 1b11 ab3d c64c c9bd 4381 b53d
000001d0: dad5 b93b c468 dbbd d511 823c f622 5dbd
000001e0: f178 5d3d 8ac0 32bc bfb3 223d 0dab 1fbd
000001f0: 697c d03c f230 b2bd a5f0 823d b284 f53d
00000200: f85a ca38 02af a73d 6f5b 1c3d 8b15 133d
00000210: 6539 e23d f46f b1bd 60c8 59bd b7bc ed3c
00000220: dfe6 d53d 6d38 3f3d 9077 853d 53fa 80bd
00000230: 3078 b23c 48fc ed3d bd6d 08bd fbac 3d3d
00000240: 7907 75bc 54d9 46bc d6b5 5ebc 03ca 333d
00000250: 6755 6dbd 713e b2bd 9d15 a33d 47ac b4bc
00000260: 913a f13c 7e34 a53d d185 263d 41d2 343d
00000270: 04ae a73c 7dc1 823d 9ddd eabd 929a 8bbd
00000280: d818 943d aa6e 83bd 3d81 a63d dda8 9fbd
00000290: adfe a5bd baaf 643d 14ea 73bc e0e1 b03c
000002a0: 99a8 963c d92c a2bd da26 bd3c 56ff b2bb
000002b0: 7805 88bd a5a5 c33d 7ca8 263d 0e34 51bd
000002c0: 0448 f5bc f058 95bd c509 b9bd 6243 38bd
000002d0: 9e57 bd3d 5983 e4bc 3f89 04bd 99f6 4c3d
000002e0: 3f1c 033c f622 00be e937 03bd c3ba 913d
000002f0: f1dc c2bd cbe5 533d c85d 8fbd 1bdb ebbc
00000300: d14d 2b3d 4148 49bd aacc 373d a52d 1a3d
00000310: c6fe ebbc 4dd5 a43d febe 933c 089a 1f3d
00000320: 3bfb 23bd 5fb5 df3d 26f2 c93d 27c8 88bd
00000330: 51f8 f03d 3b7a ff3c f1b1 86bd 3689 62bd
00000340: 1146 a4bd 1d58 8a3d 30a3 ba3d d05f 933d
00000350: 406d 8a3d de0a b53d 6f0f 3c3d d246 a73d
00000360: 7e1d 723d 0a69 bf3d 21e6 41bd 2293 d2bd
00000370: 89d5 f13d d440 d0bc 9713 de3b bf34 013e
00000380: ee76 b83d 1fc8 633d 3724 14bc 091b a73c
00000390: 4ecc 983c 13f3 ab3c 9c62 b43c 71b3 ef3d
000003a0: c907 b2bd dc66 ba3d 0660 03bd 9a03 763d
000003b0: 6bec af3c 9480 33bd 468b 1cbc 3db3 013e
000003c0: 73b7 343d 5d5a 86bd 9ae8 e33c a0a9 5c3d
000003d0: 7856 c5bd 2d2d 9bbd 1adc 28bd 33d3 a7bd
000003e0: 8bdf 733d 41fd cd3d 5c99 cf3a 16f3 203d
000003f0: d579 babc 3cc1 8a3d aa57 6fbd ddec 6ebc
