Output Files/Best Model Weights/best_model_fold_torch (Annual).pt (torch, 584968 bytes, 9 tensors)

lstm1.weight_ih_l0 f4 [424, 21]
000000 68 9c 05 3c 4f e0 5e bd 25 46 b2 bd 42 75 5c bd
       0.008154966 -0.054413136 -0.08704785 -0.053822763
000010 14 00 15 be e2 50 c5 3b d6 6b 9c bd 9f 45 35 3d
       -0.14550811 0.006021605 -0.076377556 0.04425585
000020 89 50 f7 bd dc 68 75 bd 02 f7 e7 bd 52 e3 6f bc
       -0.12075908 -0.059914455 -0.1132641 -0.0146416
000030 39 91 cc 3c 05 ca a8 bd bf f2 db bc 3f fd e8 bc
       0.024971591 -0.08241657 -0.026849149 -0.02844107
000040 99 f7 48 bd fe cf bd 3c c7 db 9a bb 21 0b c6 bc
       -0.049064253 0.023170467 -0.0047259065 -0.024175229
000050 b7 e4 08 be 04 58 ba 3d 74 d9 8a bd 68 ee 98 bd
       -0.13368498 0.09098819 -0.06779757 -0.074673474
000060 47 be e2 bd 0b 85 b6 bd 21 60 7c bc 74 2f fc bd
       -0.11071449 -0.08912095 -0.015403778 -0.123137385
000070 0d 39 33 bd 56 dd 79 bc ce 9d aa bd d9 e1 52 bc
       -0.04375558 -0.0152505245 -0.0833088 -0.012871229
000080 90 5d 4a bc 78 0d 98 bc 1c 8f c2 bd a6 7d 1f be
       -0.012351409 -0.01856111 -0.09499952 -0.15575275
000090 ad 1c fb bc e2 2d 18 3c 67 c1 57 bd b2 f4 af bd
       -0.030653322 0.009288283 -0.052674677 -0.08591594
0000a0 7e 5a b5 bd e8 d7 1a be f8 58 12 3c be 12 e8 bd
       -0.08855151 -0.15121424 0.008932345 -0.113317
0000b0 1a 7d 5f bd 4f 06 d5 3c 19 c2 4c 3d df db 2e 3d
       -0.054562666 0.026003985 0.049989793 0.042690154
0000c0 de bf 91 bc 36 4a 15 3d 73 2b 37 3d b0 cd a6 3d
       -0.017791685 0.036447726 0.04471917 0.081447005
0000d0 d2 eb 0d be 27 94 34 bd 93 76 e5 bd 64 f1 2a bd
       -0.1385949 -0.0440866 -0.11204257 -0.041734114
0000e0 a5 12 b3 bc 3c df 9f 3c 03 be 03 be 25 0d fb 3c
       -0.021859476 0.019515626 -0.12865452 0.030645916
0000f0 d7 bb 30 3c eb 06 e2 bd 2b bf fe bd 8b 85 9e bd
       0.010786972 -0.11036476 -0.12438806 -0.07740315
000100 cd 0a 4f bd d3 1f b6 bd 73 ce 37 be 32 c6 93 bd
       -0.05054741 -0.08892789 -0.17949848 -0.07215537
000110 89 32 2d bd 04 ed 82 bd 07 f3 05 be fb a3 ac bd
       -0.042284522 -0.063928634 -0.13080989 -0.08429714
000120 2c c2 c7 3d f2 96 0f be 34 fd 88 3c 1e cd c2 bd
       0.09753832 -0.14022425 0.0167223 -0.09511779
000130 a1 7d e4 3c 81 d3 d0 bd c8 e2 a4 3d 2b 11 25 3c
       0.027891936 -0.10196591 0.080510676 0.010074894
000140 7f aa 5c 3b fe 16 58 bc 61 b0 ce bd 66 9d ea bd
       0.003367096 -0.0131890755 -0.10092235 -0.114558026
000150 e0 aa 77 3c ce 1e e0 bd b8 b3 10 3c 63 ed db bd
       0.015116423 -0.109433755 0.008831911 -0.10738637
000160 92 84 82 3d ff 50 67 3d cd c0 27 3d 7c 04 8b bc
       0.06372942 0.05647373 0.040955354 -0.016969912
000170 40 90 ca bd cd 0d 8a bd d9 53 92 3c 85 e3 98 bd
       -0.09890795 -0.067409135 0.017862247 -0.07465271
000180 21 68 90 3d 03 6c b2 bc e9 39 82 bd 5c fb d7 bd
       0.07051111 -0.02178002 -0.06358702 -0.1054599
000190 17 de a3 3c 5d d3 d5 bc 34 c9 92 3c 8a 72 93 bd
       0.020003362 -0.026101762 0.017918207 -0.07199581
0001a0 9d c9 86 3d ae d6 83 3d c6 71 79 b9 cc 18 57 3d
       0.065814234 0.06437431 -0.00023788874 0.052513883
0001b0 28 89 31 3c c2 78 51 bd 19 92 2d 3b b6 51 dd 3c
       0.010835923 -0.051140554 0.0026484786 0.027016502
0001c0 95 7d 69 bd 69 fb 5e 3a 84 db ba bd 53 b3 ef bc
       -0.05700453 0.0008506091 -0.091239005 -0.029260313
0001d0 7e 6f 8b 3d 5a 0a 1e bd 94 14 4e bd 0f 90 b2 bc
       0.06808375 -0.03858409 -0.050312594 -0.021797208
0001e0 4a c3 a1 bd be 4f 26 3c 68 d9 2d bd cf 98 22 3a
       -0.078985766 0.010150848 -0.042443663 0.000620258
0001f0 fb 8d 6d 3c 79 93 11 3d 80 56 6c 3b 11 92 a3 3c
       0.014499183 0.03554103 0.00360623 0.01996711
000200 62 f7 e7 3d 04 d3 43 3d 0a 8b 10 bd 12 09 0b 3e
       0.113264814 0.047808662 -0.035288848 0.13577679
000210 1f 89 d6 3d aa bb 96 3d 3e 7d 2b 3e e1 81 da 3d
       0.104753725 0.07360013 0.16746995 0.10669304
000220 c4 c3 e5 3c 55 18 dc 3d 5d 1c 65 3d 32 d4 02 bd
       0.02804745 0.107468285 0.055935252 -0.031940646
000230 c1 a9 23 3d 98 1d 86 3d a1 8f de 3d 7e c7 34 3d
       0.03995681 0.06548613 0.10867239 0.044135563
000240 e0 c2 18 3e 15 6e 95 3d 0f 1c c9 3d 9a de 99 bd
       0.14918089 0.07296387 0.09819805 -0.07513161
000250 39 cb 82 bd ed ee 9e bd f5 bc a7 bc 55 e8 78 bd
       -0.06386418 -0.07760415 -0.020475844 -0.060768444
000260 69 6c 97 3d c6 3e 4b 3d 96 5f a3 bd 30 b5 b4 bd
       0.073937245 0.049620412 -0.07977216 -0.08823621
000270 ee fb 5e 3d e5 2b f4 bd 9f e5 54 bd 7d 13 b6 bd
       0.054439478 -0.11922435 -0.051976796 -0.08890436
000280 d4 69 1f bd 5c 49 85 bd 6a 40 6f bc f1 a6 89 bd
       -0.038919285 -0.06508133 -0.01460276 -0.06721295
000290 73 5b 74 bd a6 74 a8 bb 3e a1 9d bd 70 be b0 bd
       -0.059657525 -0.0051408587 -0.0769677 -0.08630073
0002a0 38 f7 0c bd 6b ab 3b 3d da 87 bf 3c dd 12 5a 3d
       -0.034415454 0.045817774 0.023380209 0.053240646
0002b0 af 26 de bc 76 69 35 3e 06 72 2d 3d 9a e8 8c 3d
       -0.027118055 0.17716011 0.04234507 0.06880303
0002c0 a3 85 d0 3d 97 c9 09 be fa e3 f7 3d a5 df 0b be
       0.10181739 -0.13455807 0.1210403 -0.13659532
0002d0 3e ad cf 3d 07 6b 90 be 2a 55 96 3d 19 71 48 bd
       0.10140465 -0.28206655 0.073404625 -0.048935983
0002e0 76 3f f4 3d 85 41 d9 bd 1a 08 4c 3d c0 43 19 3e
       0.11926167 -0.106082 0.049812414 0.14967251
0002f0 4b 34 63 3d 14 98 c0 3d 22 31 7a 3c 85 44 b2 bd
       0.055469792 0.094040066 0.015270503 -0.08704475
000300 1c 80 78 3c 15 3f b6 bd 29 e2 61 3d b9 80 a9 bd
       0.015167262 -0.08898751 0.055147324 -0.08276505
000310 16 68 09 bc 2f df fc bd 2d ba 40 bc 74 c0 66 3d
       -0.008386632 -0.123472564 -0.011763138 0.05633588
000320 1a e4 08 be 97 2b b1 bd f2 11 9a bd ec 21 6c 3d
       -0.13368264 -0.08650892 -0.07522954 0.057649538
000330 16 ee e8 bd 64 38 a9 3c 2a cf 9d bd 13 a1 d9 bd
       -0.11373536 0.020656772 -0.07705529 -0.106264256
000340 cd bc 5a bd 96 c5 4a 3d 30 04 08 bd 44 52 1a 3d
       -0.05340271 0.04950484 -0.03320712 0.03767611
000350 aa 1e a2 bd f1 6b 8f 3d 02 46 73 bd b1 74 93 bd
       -0.07916005 0.0700301 -0.059392937 -0.071999915
000360 de 4d b3 bd 8a d1 16 bb 45 73 04 be e5 58 da 3c
       -0.08755086 -0.0023013079 -0.12934597 0.026653716
000370 27 59 9e bd 37 c4 c9 bd b8 28 3c bd 8a bf c3 3c
       -0.07731848 -0.09851878 -0.04593727 0.023895044
000380 23 05 7a 3d fe 0d 3c 3c df 9e 63 3d 7d 8b 2b 3c
       0.061040055 0.011477945 0.055571433 0.010470268
000390 af 73 2f 3d 06 34 5b 3c 04 a0 49 3d 44 af 96 3c
       0.042834934 0.013379103 0.04922487 0.01839412
0003a0 8e 7f f7 bd 3d 4b e0 bc f7 59 36 bc 8c 1a c2 bc
       -0.12084876 -0.027379626 -0.011129848 -0.0236943
0003b0 0e 7f 9f bc b5 d0 6a bd e8 31 d9 3c 01 41 26 bd
       -0.019469764 -0.057327945 0.026513055 -0.040589336
0003c0 e9 b2 01 3d e5 75 6d be 1b 7f 2f ba 34 fe ee 3b
       0.031664763 -0.23189504 -0.00066946604 0.007293487
0003d0 15 bd 48 3d b9 56 83 bc 9d 32 c1 bd 82 99 48 bd
       0.049008448 -0.016032564 -0.09433482 -0.04897452
0003e0 8a 82 49 bd 2b d9 bb bd c1 79 38 bd de 03 90 bd
       -0.049196757 -0.09172281 -0.04503799 -0.070319876
0003f0 f8 33 be 3c 73 44 e6 bd 5b 9d 2d bb 3b eb a5 bd
       0.02321814 -0.112435244 -0.0026491496 -0.08101507

lstm1.weight_hh_l0 f4 [424, 106]
000000 da 79 c4 bd 24 ae 6e 3c fb 88 45 3d 90 5b cd 3c
       -0.09593554 0.014567886 0.048226338 0.025068074
000010 a3 77 7d 3d 01 5b b6 bc a6 7d 40 3d c3 a9 63 bd
       0.061881673 -0.02226019 0.046994828 -0.05558182
000020 cb f1 4f bd 9a 5f 2e 3d 8a 7f 42 bb 53 ee 8d bd
       -0.0507677 0.04257164 -0.002967807 -0.06930222
000030 38 a9 1b 3d d0 5d d7 bd ae 25 ce bd 35 dd c7 3d
       0.038003176 -0.1051594 -0.100657806 0.09758989
000040 1b 85 44 3e 0a f2 a3 bd 42 de fb 3c e1 8d 3a bd
       0.191914 -0.0800515 0.03074563 -0.045545463
000050 6b ec 0e be 2c 0a 70 3c 61 7f 46 bd 8d 17 af bd
       -0.13957374 0.014650863 -0.04846132 -0.08549414
000060 f2 cc 7d bd ae be 35 3d 78 c0 f8 bc dc 55 78 3d
       -0.06196303 0.0443713 -0.030365214 0.060628757
000070 dd 00 cb bd b7 8b 04 3c 49 46 a2 3b 6b 37 99 3d
       -0.09912274 0.008089951 0.0049522263 0.07481273
000080 cc d1 8e 3d e4 0a 2a 3d e8 07 9d 3d 1a 45 14 3e
       0.06973609 0.041514292 0.076675236 0.14479485
000090 b6 4f 13 3d bf 09 9c bc a9 4c ce bd 46 13 8d 3b
       0.03596469 -0.019047616 -0.100732155 0.004305276
0000a0 ac ed 9d bd 55 80 0e 3d 89 6c c7 bd cb 6d d6 3c
       -0.07711348 0.034790356 -0.09737498 0.0261754
0000b0 1d f1 1b 3d d4 6b 14 3d 99 ff b8 3c 34 a9 cd bd
       0.03807174 0.036235645 0.022582816 -0.100420386
0000c0 73 39 14 3d 60 5b aa bd 58 c0 0b 3c d6 fa 2d 3d
       0.0361876 -0.0831821 0.008529745 0.042475544
0000d0 66 31 f0 bd 77 81 03 ba 0b 51 4c bd bb 7b 56 bd
       -0.11728172 -0.0005016545 -0.049881976 -0.052364092
0000e0 e5 62 fa 3c 3d 83 f9 3c 0b 0b 85 bd 5b b5 0f 3d
       0.030564735 0.030458087 -0.06496247 0.035085063
0000f0 a6 b7 03 3e 65 0b ac bc f5 5c 8f 3d f9 c0 11 bd
       0.12863025 -0.021001527 0.07000152 -0.035584424
000100 71 89 b9 bd 85 ac f1 ba ef c0 91 3d 93 ea ab 3c
       -0.09059418 -0.0018438256 0.07116877 0.020985877
000110 e8 fd 04 bd 4a 7d 82 3d 6d 4c 6b 3d 13 7b 49 bd
       -0.032468706 0.06371553 0.057445932 -0.04918964
000120 26 fa f1 bd a2 2b b4 bc 7a 18 d1 bd 89 d4 b4 3d
       -0.1181529 -0.021993462 -0.10209747 0.088296
000130 82 d2 52 bd 86 91 a7 b9 c3 38 a7 bc df 96 31 3d
       -0.051470287 -0.00031961146 -0.020412808 0.043356773
000140 13 bb e0 3c 85 61 b5 bd 68 e5 0b be 99 0f a5 3d
       0.027432954 -0.08856491 -0.1366173 0.08059616
000150 ed 66 84 3d be 2c 2b bd b9 1a 82 3d a0 de 8d bc
       0.06464944 -0.041790716 0.06352753 -0.01731807
000160 60 48 54 bd 05 19 39 bb 08 b6 21 3e 52 6a 8a 3d
       -0.051826835 -0.0028243673 0.15792096 0.0675856
000170 73 f1 83 3d 64 e1 e5 3c 86 8f 38 3d 67 d8 ee bd
       0.06442537 0.028061576 0.04505875 -0.11662369
000180 22 fd 5c 3d d5 db 6c bd 21 f2 59 bd 77 7b 8e bd
       0.053952344 -0.057826836 -0.053209428 -0.06957143
000190 56 26 51 bd 02 0a 9e 3d f1 7f bc 3d b1 ca ce 3c
       -0.05106195 0.077167526 0.092040904 0.025243135
0001a0 08 ba 89 3c 12 fd de 3c 43 7d a8 bd b1 a6 29 3d
       0.01681234 0.027220283 -0.08227017 0.041418735
0001b0 3d 9c fd 3c 0b 8b 0d bc 85 63 54 3d b4 af ed bc
       0.03095829 -0.008639107 0.05185272 -0.029014446
0001c0 a7 0b 6c 3d fb 1c ac 3d 62 b7 15 be c1 4e 1e bd
       0.0576283 0.08403965 -0.14620736 -0.038649324
0001d0 e7 bd ec bd 7f fa bc bd a5 49 59 bd 64 f8 0b be
       -0.115596585 -0.09227466 -0.05304875 -0.13668972
0001e0 43 c7 2c 3d 8d 2a 34 3d 6f ef b6 3c 92 c3 c4 3d
       0.04218222 0.043985892 0.022330968 0.096076146
0001f0 1d 51 ca bb 28 46 2b be 72 3b bb bd e3 26 0d bc
       -0.0061742202 -0.16725981 -0.09142198 -0.008615228
000200 b1 4c 17 be 28 4f 65 3b 0b ce b8 bd 13 8b 8a 3d
       -0.14775349 0.0034989808 -0.090236746 0.067648076
000210 18 d6 1a 3e bf 8d 2d 3d ef 22 67 3b 12 da b3 bd
       0.15120733 0.042371508 0.0035268625 -0.08781828
000220 13 17 1c 3d 2f 3e 1f 3e 4f 44 71 bc c8 9d 6e 3d
       0.038107943 0.15551065 -0.014725759 0.05825594
000230 c2 f8 e6 3d 33 61 0a 3e 8f e0 29 3e 76 7c 62 bc
       0.112779155 0.13513641 0.16589569 -0.013823619
000240 f8 8e 8a 3a ca 0e 4a 3d 80 a3 22 bd 3e 80 8c 3b
       0.0010571172 0.04933051 -0.039706707 0.0042877486
000250 52 db 7e 3a 03 cd d0 3c a5 f7 3b 3e 5f 21 e9 3c
       0.00097220123 0.025488382 0.18356188 0.028458295
000260 9d 6c e0 bd 93 46 4b bd d1 1a 9f 3d 88 9b 66 bd
       -0.10958216 -0.04962785 0.07768787 -0.05630067
000270 b2 a5 05 be 3e 85 85 bd 32 ad f5 3c 0d 49 e6 bb
       -0.13051489 -0.065195546 0.029989813 -0.0070277513
000280 32 b9 45 3c 4c a9 ef bb 15 53 8b 3d 2c 6d aa bd
       0.01206808 -0.007313883 0.06802956 -0.08321604
000290 ca b2 a3 3d 17 c7 df 3d 8b f7 e7 bc ef 43 09 3d
       0.07993086 0.10926645 -0.02831628 0.033512052
0002a0 3b c2 92 bc 52 57 25 3e 4c 00 c0 bd 48 b2 67 3c
       -0.017914882 0.16146591 -0.093750566 0.014141627
0002b0 5b da ce 3d 28 83 d2 bd ff 58 b8 bd 4b b5 86 3d
       0.10100242 -0.10278922 -0.0900135 0.06577548
0002c0 55 dd e1 3d 49 6c 07 3d 38 78 84 3c 25 d1 9e bd
       0.11028544 0.033062253 0.016170606 -0.07754735
0002d0 78 5e 22 be ca cc b2 bd bc 27 e1 bd f4 2b a1 bd
       -0.1585635 -0.08730467 -0.10993907 -0.078697115
0002e0 9c 0e 35 bd aa 87 64 3d 5d c0 2a 3e dc 95 9f 3c
       -0.044203386 0.05579344 0.16674943 0.019480638
0002f0 30 3a 2a be 18 83 45 3d 8d b1 13 bd 07 3c 31 bc
       -0.1662376 0.048220724 -0.036057997 -0.010817534
000300 86 8f 32 3c fc d7 f6 3c 31 f9 8c bd 3b 6b ee bd
       0.0108984765 0.030132286 -0.06883467 -0.11641546
000310 3b e0 c1 3d 4e 34 2d 3c 2a 29 b6 3d 50 16 89 3d
       0.09466597 0.010571552 0.0889457 0.06693709
000320 36 4b db 3c 67 97 8f bd 02 ba b3 bc ac 72 06 be
       0.026769262 -0.070112996 -0.021939281 -0.13129681
000330 e2 66 38 bd 65 57 5e 3d 19 2e b2 3c 04 8b 21 bd
       -0.04501999 0.054282565 0.021750497 -0.039439216
000340 68 f9 50 bd 87 3c 6d bc 75 b1 5b bd 15 f2 27 bc
       -0.051019102 -0.014479763 -0.053636033 -0.010250588
000350 bd 3b 26 bd 45 53 b4 3c ac 44 81 bd 4b 69 a5 bd
       -0.040584315 0.022012362 -0.06311926 -0.08076724
000360 cb c9 ca bd a1 f3 8a 3d 12 48 e5 bd 95 f7 4d 3c
       -0.0990177 0.0678475 -0.11195387 0.012571235
000370 47 3b 3d be a7 f6 5b 3d 5e 4e 57 bd c7 c5 a1 3d
       -0.18479644 0.053702023 -0.05256497 0.07899051
000380 73 f8 50 bc 1c 2a ad 3b b5 30 9f 3d fe 31 d7 3c
       -0.012754547 0.005284561 0.07772962 0.026268955
000390 6d 84 8f 3c ef 02 f6 3d f5 17 9b 3d 97 85 8d bd
       0.0175192 0.12012278 0.07572929 -0.06910246
0003a0 67 92 70 3c a2 fa a9 bc 52 db b3 bd d5 75 19 bd
       0.014683343 -0.020749394 -0.087820664 -0.03746589
0003b0 16 15 40 bd a5 af c3 3d 48 82 bd bc 94 e8 9a bd
       -0.04689511 0.09554986 -0.023133412 -0.07563892
0003c0 38 16 97 bd 44 fe 98 3c ec 7b a3 3d be f3 81 3d
       -0.07377285 0.01867593 0.079826206 0.06345318
0003d0 cd 16 55 3d e2 2e fb 3c 68 bc 89 bd 37 77 10 3e
       0.052023698 0.030662004 -0.06725389 0.14107977
0003e0 54 6c b9 bc c6 f4 4d bd fd f5 ae 3d 46 87 9a 3b
       -0.022634663 -0.050282262 0.08543012 0.004715833
0003f0 00 e8 21 3c d7 24 f5 bc eb 04 a9 3c fc e0 ec 3d
       0.009881973 -0.029924793 0.020632228 0.1156635

lstm1.bias_ih_l0 f4 [424]
000000 2b f2 44 bd da 06 01 bd 3b b3 f3 bd af ca df bc
       -0.048082512 -0.031500675 -0.1189942 -0.027318327
000010 25 93 03 bd b6 92 a8 bd 75 c1 01 3e 7f 41 a6 bd
       -0.03212275 -0.08231108 0.12671454 -0.08117961
000020 ff df aa 3d 38 1f f7 bd 18 0b 2b 3d 70 63 de 3b
       0.08343505 -0.120665014 0.041758627 0.006786756
000030 e2 f3 cb bd 7f 43 35 bd e7 99 a8 bd 98 5e b5 bd
       -0.09958626 -0.044253822 -0.082324795 -0.08855933
000040 d9 27 f7 3b 6d 29 58 bd 0b 51 17 3d 82 d2 9b bd
       0.007542592 -0.05277388 0.036942523 -0.076085106
000050 18 bf a4 3d c7 c4 0e bd 3d ea 88 bd 7e 59 8e bd
       0.08044261 -0.03485563 -0.066853024 -0.06950663
000060 93 33 2c 3c 9e 34 9f bc 6b b3 ca bd 3b 71 2a 3a
       0.010510343 -0.01943427 -0.098975025 0.0006501858
000070 93 df 81 3d cd 47 6b bd 44 c6 ab bc 49 8e 45 3c
       0.063414715 -0.05744152 -0.020968564 0.012057849
000080 c0 a8 ec bd 1f 84 ba bd 1b fa e3 bd 16 9e cb bd
       -0.11555624 -0.09107231 -0.11131688 -0.09942262
000090 fa 1e 6f 3d f1 82 2d bd 6c 56 a7 bd 83 a6 4f 3d
       0.05837915 -0.042361204 -0.081707805 0.050695907
0000a0 38 4f 84 bd 74 84 7e 3d 39 ab 67 3d 88 2b c2 bd
       -0.06460422 0.062138036 0.056559775 -0.09480959
0000b0 6b 55 09 bd 70 59 05 bc 7a ef d8 bd f8 fc 85 bd
       -0.033528727 -0.008138999 -0.105925515 -0.065423906
0000c0 2e 87 5f bd d8 1a 3f bd 87 6d 91 bd 65 5c bc 3b
       -0.054572277 -0.04665646 -0.07100969 0.005748319
0000d0 be ed 1d 3d 32 dc 7d 3d 0f cc 30 3d f3 77 99 3d
       0.038556807 0.061977573 0.043163355 0.074935816
0000e0 1d d6 ef bd 56 26 e3 bd 8c 66 20 bd a2 d0 a5 bb
       -0.11710761 -0.110912964 -0.039160296 -0.0050602714
0000f0 2d 1e f6 3b 0c d2 68 bc 1c 1c 86 3d 4e b8 78 bd
       0.0075109215 -0.014210235 0.0654833 -0.06072264
000100 f9 97 10 bd 58 52 84 3d 79 46 11 bc 70 fd b3 3d
       -0.035301182 0.06461018 -0.0088669 0.08788574
000110 06 7f 13 bb 78 c2 a2 3c d0 8d 80 bd 0e ad 92 bd
       -0.0022506132 0.01986812 -0.062770486 -0.07161914
000120 3a d6 50 bd 56 48 07 3c e2 b6 8a bd e6 04 bd bb
       -0.050985552 0.008256992 -0.067731634 -0.005768406
000130 dc a9 13 be 3c 39 11 3d 83 9f 61 3c d6 15 47 bd
       -0.14420265 0.035454974 0.013770941 -0.04860481
000140 09 f9 c2 bd c7 b4 32 3d 4d d2 ca bd fd 56 a3 bd
       -0.09520156 0.043629434 -0.09903393 -0.07975576
000150 94 7e fc bd 72 f4 eb 3b 74 39 18 be e4 30 03 be
       -0.1232883 0.007200771 -0.14865667 -0.12811619
000160 75 70 86 3d 99 16 cf bd 99 bd 01 3e 43 1f 91 3d
       0.06564418 -0.10111732 0.12669982 0.07086041
000170 a8 d0 e1 bd d1 21 05 bc 66 0d e3 bd 72 9e 84 bd
       -0.11026126 -0.008125738 -0.1108654 -0.064755335
000180 63 42 9f bc 7f b8 d6 bd 38 ff 89 bd 02 22 85 bd
       -0.019440835 -0.104844086 -0.06738132 -0.06500627
000190 ac 3d 13 3d 5d 2a b2 3d 33 ea cf bd 4b ba 0f 3d
       0.035947487 0.086994864 -0.10152092 0.035089772
0001a0 1a a6 92 bc e0 5d 99 bd ea 92 cb bd 31 00 d8 bb
       -0.017901469 -0.07488608 -0.09940131 -0.0065918197
0001b0 e5 99 e7 3c 70 88 5f 3c b7 a1 88 bd 92 02 c0 bd
       0.028271625 0.013643369 -0.0667147 -0.0937549
0001c0 a0 00 07 bd f7 dc 8f bd 99 db a5 bd c5 f3 52 bd
       -0.03295958 -0.070245676 -0.080985256 -0.051502008
0001d0 e3 f1 92 3d e1 c9 dc 3c 97 72 e7 bd fc ad e9 bd
       0.071750425 0.026951732 -0.11301153 -0.11410138
0001e0 93 8d 38 bc 89 46 a8 bd f4 9a 61 3d 6f d5 9e bc
       -0.011264223 -0.082165785 0.055079415 -0.019388882
0001f0 50 2c 4d bb 87 47 c9 bd 4e 7e 81 bc 3d e9 9a bd
       -0.003130693 -0.09828096 -0.015807297 -0.07564018
000200 4a 2b 75 bd 26 92 c3 bd 37 33 fc 3c 26 4c 3b ba
       -0.059855737 -0.0954936 0.03078614 -0.0007144831
000210 cf 8c 1e 3d a9 6b 30 bd 48 66 a7 bc 4e f2 14 3d
       0.038708504 -0.043071423 -0.020434514 0.036363892
000220 0d 59 cd bc 5d ef f9 bd 50 7f 6c 3c db 49 2b bc
       -0.025066877 -0.12203858 0.014434651 -0.01045462
000230 9c 2d d6 bd a2 bb 8c 3d ab 6f e0 3c 8c 1e 0d bc
       -0.10457918 0.068717256 0.027396997 -0.00861324
000240 0d a4 25 3d 43 7b 1e 3d 5d 99 31 3d 79 bc 74 3c
       0.040439654 0.03869177 0.04335915 0.0149375135
000250 8d aa 0f bc d2 03 1f bd 4e a4 86 bd 13 bf 41 bd
       -0.00876869 -0.038822003 -0.065743074 -0.047301363
000260 aa 70 87 bd 0f 92 c8 bd 48 f3 34 3c a6 cc 07 3d
       -0.06613286 -0.097934835 0.011044331 0.033154152
000270 09 84 b0 bc b6 0a b0 bd 39 65 58 3d 12 9e 37 bd
       -0.021547334 -0.08595793 0.05283091 -0.044828482
000280 bb b7 c5 3c cc 66 d1 bb ac 11 90 bd ee 3e a6 bd
       0.024135461 -0.006390428 -0.07034621 -0.08117472
000290 a8 8a ff 3c f0 46 25 bd dc 66 08 be 30 11 83 3d
       0.031194046 -0.040350854 -0.13320488 0.06399763
0002a0 be 61 01 be 76 a9 75 bd 3e 37 5a 3d 88 13 9f bd
       -0.12634942 -0.059976064 0.05327534 -0.07767397
0002b0 74 7d 08 be 36 de 51 3d a0 04 ab 3c ea df b8 bc
       -0.13329107 0.051237307 0.020876229 -0.022567708
0002c0 27 a6 31 3c e6 33 20 bd 56 d8 c9 bd 9a 4a b9 3b
       0.010842836 -0.039111994 -0.09855716 0.005654645
0002d0 fa 7f 8d bb fd fe 1d be 8b df 18 bd ad 11 09 be
       -0.0043182345 -0.15429302 -0.037322562 -0.13385649
0002e0 e4 98 ad 3c d2 c1 6e 3d 71 f2 89 bd 3d a6 e7 bd
       0.021191068 0.05829031 -0.06735695 -0.11311004
0002f0 0c 33 f5 bc c3 15 bd 3c 5b f7 cb bd 90 ed 23 3d
       -0.029931568 0.023081666 -0.09959289 0.04002148
000300 4d 5f d9 bd 19 a6 0d be 0d 4a 38 3d 03 88 5c 3d
       -0.1061388 -0.13832892 0.044992495 0.05384065
000310 99 bd 81 bc 56 b2 8c bd bc 0d 82 bd af a1 36 3d
       -0.015837478 -0.068699524 -0.06350276 0.044587787
000320 94 8d e0 bd 74 52 d9 bc 0c 76 a8 bd dd 9b b1 bd
       -0.10964504 -0.026528575 -0.08225641 -0.08672307
000330 70 61 b7 3a b8 d4 ba 3c ae 54 21 bd 83 bc 72 3c
       0.0013990831 0.02280651 -0.039387397 0.0148154525
000340 c1 3d 13 ba 19 ca 18 bd 3e 4c 5e 3c 04 ae 08 bd
       -0.0005616807 -0.03730211 0.013567982 -0.03336908
000350 80 9e f4 3c 8b 7e 66 bd 23 db b0 3c 58 2a 15 bc
       0.029860735 -0.056273025 0.021588868 -0.009104334
000360 68 5a 93 bb d0 d2 89 bd 87 9f 34 3d ec 77 c7 bd
       -0.0044968612 -0.067296624 0.04409745 -0.0973967
000370 e1 f8 e0 bc 2e 90 03 3b 3e 05 c5 bd 54 e4 b8 bc
       -0.027462425 0.0020074951 -0.096201405 -0.022569813
000380 98 0d e7 3d dd 52 ee 3c b9 4b 51 3c 40 1e 64 bc
       0.1128189 0.029092247 0.012774401 -0.013923228
000390 1e 53 a7 bd 87 ec 20 bc 2e d9 5d 3d c9 c2 49 3d
       -0.0817015 -0.0098220175 0.054162197 0.049258027
0003a0 e3 92 f4 3d 71 4b d4 39 7a ad 84 3d 2e 7d 8e bd
       0.11942079 0.00040492 0.064784005 -0.0695747
0003b0 1a ca fc 3b e8 26 dd 3c 56 58 09 3d 3f 09 ff bc
       0.007714522 0.026996091 0.03353151 -0.031132339
0003c0 23 d8 0f 3d 1e 93 6f bd 49 01 4e 3d aa 83 3c bd
       0.035118233 -0.05848991 0.050294194 -0.046024002
0003d0 6e c7 bb 3c 78 13 81 bc 4d 6e 04 bd 6b bf 7a bd
       0.022922244 -0.015756354 -0.032331754 -0.061217707
0003e0 3d 80 85 bd 01 92 ad 3d 08 f1 56 bd 9c 07 e3 3d
       -0.065186 0.08475114 -0.05247596 0.11085436
0003f0 34 6e 4f 3c b0 6c 9b bc a8 39 a2 bb ce fe 9f 3d
       0.012660552 -0.018972725 -0.004950721 0.07812272

lstm1.bias_hh_l0 f4 [424]
000000 d3 b5 27 3d 1d cc c5 bd 01 59 7c bd 3e 7f 9f bd
       0.040944885 -0.09658072 -0.06160832 -0.077879414
000010 12 03 a5 bd a7 e4 28 3d 75 0d 14 3d 5b 0b ea 3c
       -0.08057226 0.041233685 0.036145646 0.028569868
000020 fd 7c 68 bc 63 63 fd 3c 49 90 e5 bd f1 bd a3 bd
       -0.014189956 0.03093118 -0.11209161 -0.07995213
000030 54 42 91 bd 3d 85 6c 3d 07 60 7a bd c9 90 50 bd
       -0.07092729 0.057744253 -0.061126735 -0.050919328
000040 ac cf dd 3d e1 34 1c bd 0a e7 bb bd aa de 75 bd
       0.10830626 -0.038136367 -0.091749266 -0.060026802
000050 f4 4e 92 bc e8 21 93 bc 25 e0 a8 3d 19 fe 2c 3c
       -0.017859913 -0.017960504 0.08245877 0.0105586285
000060 5f 62 de bd 35 2c 39 3d 1b 7a dc bc c9 10 25 bd
       -0.108586065 0.045208175 -0.026913693 -0.04029921
000070 9d 45 46 3d c7 ee e0 bd 2d 18 c0 3c 94 0f ee 3c
       0.048406232 -0.10983043 0.023449028 0.029060163
000080 bd e2 b9 3b f0 36 f1 bd 47 48 0a 3d f8 27 9f bd
       0.0056727813 -0.117780566 0.033760335 -0.07771295
000090 7b 73 81 bc e3 10 5e bd f0 6b ca 3d a5 c8 33 3d
       -0.015802136 -0.054215323 0.09883869 0.04389252
0000a0 42 62 b5 bd fc ee 81 bd a7 10 37 bd 54 d2 44 3c
       -0.08856632 -0.06344411 -0.044693615 0.012013037
0000b0 c9 b6 89 bd 85 bb 9e bc 2a 44 28 3d 71 dc 8f bd
       -0.067243166 -0.019376526 0.04108063 -0.07024468
0000c0 36 e7 4f bc 15 ba 97 bd a7 3f 5f 3d 21 c0 06 be
       -0.012689402 -0.07408539 0.054504063 -0.13159229
0000d0 0f de c2 3c c9 4a f8 bc 63 14 9d bb a7 ab 51 bd
       0.023787526 -0.030309098 -0.00479369 -0.05118909
0000e0 a7 ac 81 3d a7 8a 7f 3d 33 9b f2 3c 2a 23 08 be
       0.06331759 0.06238809 0.02961502 -0.13294664
0000f0 f6 5b 12 3d 86 82 32 bd 1e aa 83 bc bb 14 98 3d
       0.035732232 -0.043581508 -0.01607233 0.07425829
000100 ef fe 1c 3d 6e cf 98 bd 94 aa 22 3d 93 07 8f 3d
       0.03832906 -0.07461439 0.039713457 0.069838665
000110 29 75 a5 3b 60 56 59 3c 3f b7 bf 3c d0 5a 6c 3d
       0.005049367 0.013265222 0.023402808 0.057703793
000120 72 9e c8 3c 84 f0 08 be 48 b5 90 bd 53 af 7a bc
       0.024489615 -0.13373 -0.07065827 -0.01530059
000130 fb 7c 16 be 3c d2 9b 3c c0 ad 2c 3c 9b 2a 88 bd
       -0.14696114 0.019021146 0.010539472 -0.06648751
000140 3c 71 05 bc 37 19 c4 bc e9 4a 0f bb 1e 10 77 bd
       -0.008144673 -0.023937805 -0.0021864718 -0.060318105
000150 e7 9d 25 bd 9f 24 c2 3c 34 cc 0c be 75 ab c9 bd
       -0.04043379 0.023699103 -0.13749772 -0.09847156
000160 1f 17 b8 bd e3 6c e1 3c b5 e7 77 3d 36 3b 9e bd
       -0.08988785 0.027517742 0.060523707 -0.07726137
000170 af de 0e bb b6 a6 3e 3d 86 b5 5d 3d 7f de 27 3b
       -0.002180021 0.046545707 0.054128192 0.0025614796
000180 56 55 6c bd bb aa 32 bd ee 7d 7d bb ef cc 0e 3d
       -0.05769857 -0.043619853 -0.0038679796 0.03486341
000190 2d 7e af 3d 3c 8d a8 bc 09 72 49 3d 3b 35 c6 3c
       0.08568988 -0.020575158 0.049181018 0.024195304
0001a0 c3 ab 82 bd 64 ae 3a 3d 27 fd 00 be a7 4a 1f 3b
       -0.06380417 0.045576468 -0.1259657 0.002430597
0001b0 31 6a 5e bc cc 95 ee 3c 00 e6 57 bd 49 88 2b 3d
       -0.013575123 0.029124163 -0.05270958 0.04187802
0001c0 3c e0 01 3c 40 21 d4 3b 1a df 2b 3d 54 67 00 be
       0.007926997 0.0064736903 0.041960813 -0.12539417
0001d0 ab 11 73 bb 26 c4 a8 bd c3 ce e0 bc 75 ee e3 bd
       -0.0037089388 -0.08240537 -0.027442342 -0.111294664
0001e0 11 fe 2d 3d 0b 18 a4 3d 9c b1 b8 3c 36 6d c4 3c
       0.042478625 0.08012398 0.022545628 0.023977857
0001f0 e2 49 f3 bc 53 03 8b bd 62 cd 09 bc 53 a9 86 bd
       -0.029698316 -0.067877434 -0.0084107835 -0.06575265
000200 95 f7 10 bd 25 e6 2b bc 36 4a f5 bd 18 c5 8b 3d
       -0.035392363 -0.010491882 -0.11977045 0.06824702
000210 8e dd 9f 3d 0c 68 df bd 12 47 4c 3d ae 79 e1 3c
       0.0780593 -0.10908517 0.049872465 0.027523842
000220 80 bd e2 bd 3c 81 53 3d 56 d7 0e bc 5f 70 01 be
       -0.110713005 0.05163692 -0.008718332 -0.12640522
000230 e4 c6 96 3c b9 6a a8 bd bf d8 1b bd 94 c0 2e bd
       0.018405385 -0.08223481 -0.038048502 -0.042664126
000240 09 2b 3b 3d a4 35 ee bc 5d 8e b8 bd 04 7f 8d bd
       0.04569534 -0.029078312 -0.09011529 -0.06908992
000250 ee 90 1b 3d 1b 06 83 bd 23 c5 d1 bd 31 47 dd bc
       0.037980013 -0.06397649 -0.10242679 -0.027011486
000260 97 ad 93 bc 15 91 52 3d 72 61 34 bc 18 77 e2 bc
       -0.01802711 0.051407892 -0.011009561 -0.027644679
000270 c5 5e 57 3d 2d 9b 99 bd a4 c9 8a bd e9 ed e3 bd
       0.052580614 -0.075003006 -0.06776741 -0.11129362
000280 ab eb c0 bd f5 a0 84 3d 94 04 f2 bd fd 2c 55 bc
       -0.0941995 0.064760126 -0.118172795 -0.013011214
000290 ba c4 3f bd 16 d5 19 be 06 dd d7 bd fa 2a 47 3d
       -0.046818472 -0.15022692 -0.10540204 0.04862497
0002a0 3e 63 cf bd f5 6f e4 bb ee f4 16 bd 20 63 6e bd
       -0.10126351 -0.006971354 -0.036854677 -0.0582
0002b0 29 89 cc bd 6a 63 63 3d 3c e8 f0 bd 17 43 ee 3c
       -0.09987099 0.05551473 -0.11763045 0.029084725
0002c0 94 0d b3 bd 8a 42 89 bd 67 7f 92 bc a4 a3 0a 3d
       -0.08742824 -0.067021444 -0.017883016 0.033847466
0002d0 5a 9b b4 bd 27 28 77 3c 8b 1b 29 be a3 47 b7 3c
       -0.088186935 0.015085257 -0.16514413 0.022373026
0002e0 ef bd 0e 3d 15 bc ca bd 51 ce ae bd bd a9 3b 3c
       0.034849104 -0.09899155 -0.085354455 0.011454043
0002f0 9f 7c 4a 3c 9f c6 ba bd 59 00 62 3d 6c a8 56 bd
       0.012358814 -0.09119915 0.055176113 -0.052406713
000300 c2 e1 9a bd 73 b2 ed bc ed 6a 45 3c 68 4f 4e 3d
       -0.07562591 -0.029015755 0.012049419 0.050368696
000310 a7 84 4c bd 3a 42 b3 bd 50 1c 79 bd 47 da 27 bd
       -0.049931195 -0.08752866 -0.060818017 -0.04097965
000320 fa 75 f1 bd a9 2b 3e bd ae b2 33 bd 58 a4 d4 3c
       -0.1179008 -0.046428356 -0.043871574 0.025957271
000330 4b 31 2d 3d 83 fe a7 bc 39 8d a9 bd 96 7a 3f 3d
       0.042283338 -0.020507103 -0.08278889 0.046747766
000340 1a b3 16 3c 6f c0 e1 3c fc fa fa bd 59 02 12 bd
       0.009197975 0.02755758 -0.12254903 -0.03564677
000350 26 cb 27 3d 8e ab a4 bc bf 4f 15 bd df 05 80 3c
       0.04096522 -0.020101335 -0.036453005 0.0156278
000360 b2 d5 94 bd d5 44 48 bd 8e a9 92 bd 80 83 6c 3d
       -0.07267322 -0.04889377 -0.07161246 0.057742596
000370 bc 96 58 3d c6 8d 45 bd 73 cf 24 3d 89 80 c9 bd
       0.052878127 -0.04823091 0.0402369 -0.09838969
000380 44 df bb 3d 2d 3e 3e 3d ff 48 fe 3c 3e 02 14 bd
       0.09173444 0.046446014 0.031040667 -0.03613495
000390 62 b2 62 bd 11 b6 3c 3d 2b 59 af bd 35 12 30 bb
       -0.0553459 0.04607207 -0.08561929 -0.002686632
0003a0 18 25 6e 3c 2e c3 c6 bd cd a3 bb 3c ed c1 f8 3c
       0.014535211 -0.09705196 0.022905255 0.030365909
0003b0 fc 94 1d 3d b8 99 e1 3c dd 86 19 bd 0a df 7a bd
       0.03847216 0.02753912 -0.03748213 -0.061247863
0003c0 ba c9 98 bd d2 6b a7 3c 8f 51 4d 3c a2 60 69 3d
       -0.07460351 0.020437155 0.012531652 0.05697692
0003d0 41 22 1f bc c4 03 93 bc eb 8f 97 bd 6b 84 df 3c
       -0.009712757 -0.017946132 -0.07400497 0.027284821
0003e0 5a e5 27 bd 84 07 c4 bc 5e 14 08 3d 32 ce 02 3d
       -0.04099021 -0.023929365 0.03322255 0.031934924
0003f0 3e e6 42 3d 90 5a 86 3d a0 61 5c bd 60 b7 9e 3d
       0.047582857 0.06560242 -0.05380404 0.0774982

lstm2.weight_ih_l0 f4 [424, 106]
000000 87 92 a0 bc 3e 87 b0 bc 08 80 40 3d e3 93 c8 3c
       -0.01960112 -0.021548864 0.0469971 0.02448458
000010 bd d8 28 3d ee 98 6f bd 64 f6 98 bd 60 00 4a 3d
       0.041222323 -0.058495454 -0.0746887 0.049316764
000020 76 88 dd bd 02 d3 a1 3d 87 19 06 be 60 f8 30 3d
       -0.108170435 0.07901575 -0.13095675 0.04320562
000030 7b 5d bb 3d d3 70 91 3c 26 59 bd bd b3 0c b1 3d
       0.09148689 0.017753994 -0.09245519 0.08645
000040 d2 81 0a 3e ed f2 5a bc c4 be 61 bd 6a 1f cf bd
       0.13526085 -0.013363582 -0.05511357 -0.10113414
000050 cd 4c f2 bd f4 1f f9 bb 0c a8 9e 3c 66 92 fb bc
       -0.11831055 -0.007602686 0.01936724 -0.030709457
000060 3c 3c 39 3c 26 0f ce 3c 5e 43 c5 3d 85 78 8d bd
       0.011305865 0.025153708 0.0963199 -0.06907753
000070 41 2c 5d bd 52 80 5a 3d 2a 7f 8d bd 2b ec 5c bb
       -0.053997282 0.053345032 -0.0690902 -0.0033710103
000080 05 24 b1 bd 7f 71 45 39 28 45 33 bd 69 7e 8f 3d
       -0.08649448 0.00018829665 -0.043767124 0.07006533
000090 19 01 84 bd d6 89 b2 bb da a5 d3 bd 59 e4 ea 3b
       -0.06445522 -0.00544856 -0.10334368 0.0071683344
0000a0 cb 94 0b 3d 6c 01 9a bc 41 2d 48 bd 4c 7b e1 bd
       0.034077447 -0.018799506 -0.048871282 -0.11009845
0000b0 42 a3 cc 3d 88 4e 00 3e 2a 25 5f bd 18 4d a8 bc
       0.099920765 0.12529957 -0.0544788 -0.020544574
0000c0 d2 d8 1f 3e 5c 0e 27 3d 07 14 e8 bd 2a 15 b8 bd
       0.15610054 0.04078518 -0.11331945 -0.08988412
0000d0 c5 9a a7 3d 64 cd b8 bc 78 f9 1f bd ee c9 94 3c
       0.08183817 -0.022558875 -0.03905627 0.018162694
0000e0 5d c4 8d bd 14 aa 03 3d 8f b8 57 bd ba 92 c3 3d
       -0.06922219 0.03214462 -0.052666243 0.0954947
0000f0 a2 3c 72 3d fd 37 cf 3d 9e 25 3c bd 4b d7 ec 3d
       0.059139855 0.10118101 -0.045934312 0.115645014
000100 e6 70 24 be 79 b6 9b bb c9 37 95 3d 8d 76 27 be
       -0.16058692 -0.004751977 0.07286031 -0.16353817
000110 1a 7c ae bd 70 9a a2 3b 27 af ea bc 33 0c a8 bc
       -0.08519764 0.004962258 -0.028647972 -0.02051363
000120 40 ab 4b bd 4d b2 8f bd cd fe 68 3b ec 49 d2 3d
       -0.049723864 -0.0701643 0.0035552264 0.10268006
000130 f9 50 25 bd 21 8c ab bd f9 4e 67 bc 29 2c c3 bb
       -0.040360425 -0.08376337 -0.01411795 -0.005956192
000140 0c dd aa bc 0d fc 2f 3d f7 b5 5d bd 80 85 25 3d
       -0.020857356 0.042964984 -0.054128613 0.04041052
000150 95 4c 10 3d d1 b0 d8 bd 6b fe da bc d8 e2 68 bd
       0.035229284 -0.105806 -0.026732644 -0.05685696
000160 fd 50 0b be 87 36 a2 bd 46 6c 9d 3d 6b 21 a5 bd
       -0.13605113 -0.079205565 0.07686667 -0.080630146
000170 43 ed 93 bc 29 26 a6 bc 95 44 e7 3d 1c 91 d4 bd
       -0.018057471 -0.020281868 0.11292378 -0.1037924
000180 4c fa f6 bd 52 e5 8b bc 65 cc 32 3e 47 94 c8 3c
       -0.12059459 -0.017077122 0.17460783 0.024484767
000190 3b b0 31 3b a0 21 b8 3c 30 94 e3 bd f6 00 05 bd
       0.0027113098 0.022476971 -0.11112249 -0.03247162
0001a0 52 8e 24 bd 73 17 45 3b cc 32 b1 bc fd 87 14 3e
       -0.04017479 0.0030073791 -0.021630667 0.14505
0001b0 d2 9d 6b 3c a5 58 87 bd d7 60 0d 3d 42 69 c8 3d
       0.014380889 -0.066087045 0.03451618 0.09785701
0001c0 5f e5 b0 3d 10 0e 19 3e c1 f2 23 bd ee c4 8b 3b
       0.08637499 0.1494677 -0.04002643 0.004265419
0001d0 54 e8 6e 3d dd 0e e4 3d ff bc 01 3d 4d 33 db bc
       0.058327034 0.111356474 0.03167438 -0.02675786
0001e0 31 56 49 bd 41 af ff 3d b9 cd ca 3c e7 e8 6b 3d
       -0.049154464 0.12484599 0.0247563 0.05759516
0001f0 90 3f 1b bd 8c 8f 46 bd de 5e 02 3d a2 72 c6 bc
       -0.037902415 -0.04847674 0.031828754 -0.024224583
000200 01 d2 59 bd c5 03 db 3c 84 c4 fb 3d 62 f0 e6 bc
       -0.05317879 0.026735196 0.12293342 -0.028190795
000210 a1 f3 86 bd 48 54 93 3d d9 e1 89 bc 43 65 86 bd
       -0.06589437 0.0719381 -0.016831325 -0.06562283
000220 10 b3 36 bd 54 26 e6 3d e5 a6 eb 3d 51 96 ae 3d
       -0.04460436 0.11237779 0.11506442 0.08524764
000230 60 b0 9f 3d cc 62 7f bd 7b bc c7 bc bb e1 bc bd
       0.07797313 -0.06235008 -0.024381867 -0.09222742
000240 c0 08 78 3d d3 12 8d 3d 0b 0b 9a bd 4b c2 ad bc
       0.06055522 0.06888356 -0.075216375 -0.02121081
000250 85 dd 80 3b e0 71 62 3d fe 5e 21 3a b5 b1 ad 3d
       0.003932657 0.05528438 0.00061558175 0.084811606
000260 04 ea 27 ba 11 c3 6c bd 6a fb a2 3d f7 c3 c2 3d
       -0.00064054155 -0.057803217 0.0795811 0.095100336
000270 78 e5 2a bd ed 65 7a 3d b4 f0 e5 3c 29 48 bd bb
       -0.041722745 0.06113236 0.028068878 -0.0057764244
000280 1f 1f 6f 3c 69 7f 8e bd e0 95 85 bc 28 4e 07 bd
       0.014594822 -0.06957895 -0.016306818 -0.03303352
000290 37 b5 97 3d 65 59 8f 3d 63 0c b0 3d fa b9 49 bd
       0.07407611 0.069994725 0.085961126 -0.049249627
0002a0 e4 d0 65 3d 5e a4 e5 3d ce 4a 19 3d 38 77 c9 3d
       0.056107417 0.11212991 0.037424855 0.09837192
0002b0 76 b6 a9 bd 83 f9 36 3d b6 74 9b 3d bf c8 6c bd
       -0.08286755 0.044671547 0.0759062 -0.057808634
0002c0 e1 cd 5f bd 19 df a0 3d 3a de 02 3c ab c9 98 bd
       -0.0546397 0.078550525 0.007987553 -0.0746034
0002d0 27 85 79 bd bf 59 7a bd d4 ba 6f 3c 4b c9 34 3d
       -0.060918 -0.061120745 0.014631946 0.04413728
0002e0 9b 65 c2 bc 98 8b 96 bd 57 8e 30 bd ba 8d 4c 3d
       -0.02373009 -0.07350844 -0.043104496 0.04993985
0002f0 fa c3 99 3d c0 6a 0e 3d e3 a3 95 3d e4 3b d2 3d
       0.07508083 0.034769773 0.073066495 0.102653295
000300 5e a5 92 b8 cf 5b 9d bd 04 90 e1 3c 56 f5 73 3c
       -6.9926245e-05 -0.07683527 0.027534492 0.014890036
000310 cc 2d cf 3c b7 82 f4 3d 3c b7 d9 3d b9 08 b5 3d
       0.025290392 0.119389944 0.10630652 0.08839554
000320 84 72 34 3d 57 a1 92 3c 8c 3d 0c bd 3f a3 5d bd
       0.044054523 0.017899198 -0.034238383 -0.05411076
000330 ed e0 16 bd ef b5 e7 bd 38 01 a5 3c 1d 64 3a 3d
       -0.0368356 -0.11313998 0.020142183 0.04550563
000340 24 48 de 3d 82 8d 97 3d f7 46 eb 3c 4e 40 73 3c
       0.108536035 0.07400037 0.028720362 0.014846874
000350 af e7 7b 3c bd 39 c4 3d a5 40 d5 3d 1b 7b ee bc
       0.015375062 0.09581325 0.104127206 -0.029111436
000360 87 75 d6 bd 94 1f 86 bd b6 16 62 bd 36 9f 29 bd
       -0.10471635 -0.06548992 -0.05519744 -0.0414116
000370 95 0e 1f be c2 5d 3a bd c2 33 20 3c 87 d7 c0 3c
       -0.15532906 -0.04549957 0.009777965 0.023540271
000380 c9 79 b1 3d 4f 2b e1 bd f3 11 0b 3c 59 b0 ee bb
       0.08665807 -0.109945886 0.008488166 -0.007284206
000390 d2 72 cb 3c 40 d1 84 3c 4c 29 94 3d ac 24 3e 3c
       0.024835024 0.01621306 0.07234439 0.011605423
0003a0 aa 26 5f bc d5 35 d0 bd 3a 65 99 bd 67 5a cc bd
       -0.013620058 -0.10166518 -0.074900106 -0.099781804
0003b0 d0 7b 63 bd 23 2d 2b bd d4 30 d1 3d b0 73 ac bc
       -0.055538 -0.041791093 0.10214391 -0.021051258
0003c0 26 ee 36 bc b5 77 69 3d 44 e4 ce bd 01 55 76 bd
       -0.011165177 0.056998927 -0.10102132 -0.06013966
0003d0 c6 cd 40 3d 9e ca de 3c f3 9f 98 bd 63 6a 0a 3e
       0.04707124 0.027196225 -0.07452383 0.13517146
0003e0 cb c5 a2 bd 39 c7 a2 3d 7a 84 da bb 6a 21 f4 3a
       -0.07947882 0.07948155 -0.0066686245 0.0018625681
0003f0 c4 34 01 3d d4 c9 ca bd 66 57 ae bd c3 14 b9 3d
       0.03154446 -0.09901777 -0.08512764 0.09037163

lstm2.weight_hh_l0 f4 [424, 106]
000000 71 93 49 3d ec 7f 78 3d 04 9d 06 bd 63 ea 26 3d
       0.049212877 0.06066887 -0.032864586 0.040750872
000010 78 e6 81 3d eb cf 17 bc 8f 2e b3 3d 2e 78 0e bd
       0.063427866 -0.00926588 0.08749115 -0.03478258
000020 5f 34 28 3d e0 b5 cb 3d 62 20 67 3d fe 26 25 bd
       0.04106557 0.09946799 0.056427367 -0.04032039
000030 a7 bc 55 bc 77 02 14 3d 30 2f e1 3d 93 38 ab 3c
       -0.0130454665 0.036135163 0.109953284 0.020901
000040 d4 21 32 3d 5d ba 3a 35 1d f1 3e 3d 03 f1 12 3c
       0.043489292 6.9561594e-07 0.046616662 0.0089685945
000050 7d 0c 8a bd 4c 57 bd bc 3f a0 f6 3b e1 6f 4b 3c
       -0.06740663 -0.023112915 0.007526427 0.012416811
000060 d8 cc 97 3b 33 42 45 3d 99 04 6a 3d e5 93 f2 bd
       0.0046325736 0.048158836 0.05713329 -0.11844615
000070 4a 96 d2 bc a6 d0 93 bd 42 aa 1b bc 14 a2 2f bb
       -0.025706429 -0.07217531 -0.009501042 -0.0026799487
000080 23 41 8c bd 99 55 bf bb 3d d5 4e 3d a7 c8 44 bc
       -0.06848361 -0.0058390615 0.05049633 -0.01201073
000090 96 5a 2c bc 9d 16 0d bd c7 82 9f 3c 34 a5 f4 3d
       -0.010519644 -0.034445394 0.01947154 0.119455725
0000a0 84 b5 ba 38 8f 6e 84 bd 64 59 6d 39 77 38 f5 3a
       8.902981e-05 -0.064664 0.00022635382 0.0018708844
0000b0 24 a6 a3 3d 2d 1f 95 bb 86 c8 bb bc 2a cc b1 bd
       0.07990673 -0.0045508356 -0.022922765 -0.08681519
0000c0 cd ce 9e bd c6 a1 05 bc 2f a5 40 bd b2 10 6b bb
       -0.07754288 -0.008156246 -0.04703253 -0.0035868105
0000d0 d4 fa 8e bd 90 41 8b bd 55 32 15 bd c1 d4 4c bd
       -0.069814354 -0.067996144 -0.036424953 -0.050007585
0000e0 08 e8 73 3d 9a d5 99 3b 81 d3 79 bd cc af a0 bd
       0.059547454 0.0046946527 -0.06099272 -0.078460306
0000f0 81 8d 69 bd a5 15 f1 bd 7b e4 17 bb 4c 45 70 3d
       -0.057019714 -0.117717065 -0.0023176956 0.058659837
000100 62 c8 9b bd 81 6f 48 3d 48 24 2a bd 9f 55 98 bc
       -0.07606579 0.048934463 -0.041538507 -0.018595515
000110 64 4f b0 bc 03 21 ee 3d e8 37 18 3d 5f 0a 63 3d
       -0.021522231 0.1162739 0.03716269 0.055429813
000120 7a 06 1c 3d f2 8c 00 be c5 94 b1 3d 59 81 c2 bc
       0.038092114 -0.12553766 0.08670954 -0.023743318
000130 79 c6 f9 bc 2c fa f8 bb 8b 10 fb 3d 48 d3 a2 bd
       -0.030490147 -0.007598182 0.12259015 -0.07950455
000140 60 f5 25 3d 61 89 90 bd 23 8f 20 3d fe 03 ee bb
       0.04051721 -0.07057453 0.039199006 -0.0072636595
000150 22 90 db bd 68 0f 6d bd e9 cd 82 bb 68 aa db 3d
       -0.107208505 -0.05787602 -0.0039918316 0.10725862
000160 c7 eb 16 bd 5d aa 67 3d ef 10 5e 3d 45 2c a7 3b
       -0.03684595 0.056558955 0.054215368 0.005101713
000170 fd 7d d2 3d 5d 3f ec bc 80 c5 58 3d 8b 7f 48 bd
       0.102779366 -0.028838808 0.052922726 -0.04894976
000180 39 1f b9 3c 81 08 b4 3d 3e c9 ff bc a5 09 d9 3d
       0.022597896 0.087906845 -0.03122389 0.10597543
000190 9c 29 92 bd 37 35 1b 3c 92 6a 32 3b 5b b0 9c bd
       -0.071368426 0.009473137 0.0027224165 -0.07650825
0001a0 e9 a8 62 bc 0f b4 c3 bd e1 f1 0d 3d bd f6 ac bd
       -0.013834217 -0.09555828 0.0346545 -0.08445499
0001b0 92 6d c4 3d e2 91 c7 bd 6d 9b 88 3d 45 52 12 3e
       0.095912114 -0.09744622 0.0667027 0.14289196
0001c0 9b 23 b0 bc 52 f4 0d 3d c8 f1 9d 3d c3 be 3a 3d
       -0.021501353 0.03465683 0.07712132 0.04559208
0001d0 a1 d4 a7 3c 22 d3 64 3d 55 69 ea 3d 44 df 9a 3d
       0.020487132 0.055865414 0.11445872 0.07562116
0001e0 fa a3 cd 3d 9a d0 da bd d4 84 62 bd 9a 8a 90 bd
       0.10041042 -0.10684319 -0.055302456 -0.07057686
0001f0 b5 0f a1 bb 2e 85 51 bb 1e 48 9e bc 86 b4 a3 3d
       -0.0049152025 -0.003197025 -0.019321498 0.079934165
000200 56 94 21 bd 26 fc 18 bd 22 92 1a bc 6f 15 c8 bd
       -0.039448105 -0.037349842 -0.009434255 -0.09769713
000210 47 57 d1 bd 0e b9 0c 3d 92 98 3d 3d 0e b6 cc bb
       -0.10221725 0.03435617 0.04628808 -0.0062472885
000220 31 43 ac bd d4 5e b7 3d ee c0 30 bc 16 0e 05 be
       -0.08411253 0.08953634 -0.0107881855 -0.12993655
000230 35 2e e4 bc 0a f2 b1 bc 3e 2f e8 3d b6 18 19 bd
       -0.027854064 -0.021721859 0.11337136 -0.03737708
000240 43 e1 98 3c f8 39 cf 3d 3b 49 1d 3d 74 e2 b5 bc
       0.0186621 0.101184785 0.038399916 -0.022202708
000250 aa 47 52 bd 07 59 8a bd a4 b4 d9 bc e9 f0 af bc
       -0.051337875 -0.06755262 -0.026575394 -0.02147718
000260 0f bb 81 3c 6e 6b 52 bd 6a 15 ba bd bb 9a 1b bd
       0.015836267 -0.051371984 -0.09086116 -0.03798936
000270 8e ae 29 3d 0e 0e e2 bb b3 ca a9 bd 8c 9d 1d 3d
       0.041426234 -0.006898648 -0.08290615 0.038480327
000280 dc 3f 59 bd 35 37 06 bd 83 84 f8 bd 4c 87 8c ba
       -0.053039417 -0.032767493 -0.121346496 -0.0010721474
000290 15 e4 1f bc 36 1b 71 3d 72 97 19 bd 31 36 4a 3b
       -0.009758969 0.05886384 -0.037497945 0.0030855055
0002a0 40 27 6e 3d 28 e7 cf bd 5d fd 1f bd 29 d6 50 bd
       0.0581429 -0.101515114 -0.039059985 -0.05098549
0002b0 6c ac ad bc ee 6e 77 3c 75 da f4 bd 72 8b af 3d
       -0.021200381 0.015102131 -0.1195573 0.08571519
0002c0 db 82 97 bd 6a 27 9d 3c bc a1 90 3b c4 2a 8b bd
       -0.073980056 0.019183833 0.0044138115 -0.06795266
0002d0 2c 76 ae bb 8a f9 b4 bc f5 73 21 bd 8a 1d bb bd
       -0.005324146 -0.022091646 -0.039417226 -0.091364935
0002e0 30 9b db bc cc 28 64 bd ea eb 88 bc ce a1 aa bb
       -0.026807398 -0.05570297 -0.016714055 -0.005207277
0002f0 06 7e 48 bd e8 e5 20 bd 33 6c 2e bd 6b ce 18 3d
       -0.04894831 -0.039281756 -0.042583656 0.03730623
000300 55 18 31 bb 36 d2 d4 3c 08 02 4e bd d4 f5 96 bd
       -0.002702256 0.025979143 -0.050294906 -0.07371107
000310 44 17 95 bc ff 03 1c 3d 6a f0 00 3e 03 d8 94 bd
       -0.01819957 0.03808975 0.1259171 -0.072677635
000320 9c 3a 89 bc 9a 39 c3 bc b0 d3 ab bd d2 f4 45 bc
       -0.01675158 -0.023831178 -0.083899856 -0.0120822955
000330 2c a0 ca bd 3d 43 7e 3d a7 2c f6 bc 68 cd 80 3c
       -0.098938316 0.062075842 -0.030050589 0.015722945
000340 bc 12 b4 bd 74 3f 07 be 42 b2 cd 3d 5e fa 83 bd
       -0.08792636 -0.13207799 0.100437656 -0.06444238
000350 74 e8 ea bd 44 93 b3 bd 84 78 ac 3d 55 ea e7 bd
       -0.11470118 -0.08768323 0.08421424 -0.11323992
000360 52 d6 72 bd 8c d8 66 bd e8 d2 21 3d 01 16 72 bd
       -0.059286423 -0.05635886 0.039507776 -0.059103016
000370 75 8e 6b bd 7a 49 c4 3b f1 c5 94 bd 17 39 e3 3c
       -0.057508904 0.0059902044 -0.07264317 0.027737183
000380 04 e9 22 3d 5e db 94 3d a6 b1 a9 3d 90 a5 b1 bd
       0.039773002 0.072684035 0.08285837 -0.08674157
000390 c9 47 7a bd 22 bc 58 3d 36 6d d1 3d fc f2 2e bd
       -0.061103616 0.052913792 0.102259085 -0.042712197
0003a0 54 7e e4 bc ec 1b 17 3d f3 00 cd 3c 72 ec 7c 3c
       -0.02789227 0.036891863 0.025024867 0.015437232
0003b0 c1 1a 99 bc ec 50 68 3d 4b f8 b5 bc 3c c1 d3 bd
       -0.018689515 0.056717798 -0.022213122 -0.10339591
0003c0 eb 51 46 3c 6a 4c c1 bc 53 00 c4 3c e0 e9 5b bd
       0.012104492 -0.023596007 0.023925936 -0.053689837
0003d0 d3 a6 aa bd 0f 7d b0 3c 4a 3a 3d 3d 09 52 cc bd
       -0.083326004 0.021544008 0.046198167 -0.099765845
0003e0 18 a4 5f bd 11 c0 80 bc 45 66 af bd 7c 96 a9 bd
       -0.05459985 -0.015716584 -0.08564428 -0.08280656
0003f0 c4 2c a2 bd bf 34 1c bd 21 08 58 3d 8b 3d d6 bc
       -0.079186946 -0.03813624 0.052742127 -0.026152393

lstm2.bias_ih_l0 f4 [424]
000000 fa cc c7 bd 5b f2 de bd 22 db a4 bc 8a a8 86 bd
       -0.09755893 -0.108860694 -0.020124022 -0.06575115
000010 e9 fd 86 bd f3 6b 19 bc 98 51 be bc 99 a5 a4 3c
       -0.06591398 -0.009364116 -0.023232266 0.020098494
000020 c5 55 b1 bd 07 b7 c8 bd 8f 93 91 bd dd b0 9e bd
       -0.08658937 -0.09800535 -0.07108223 -0.07748578
000030 d6 a2 c1 bd 67 78 84 bb dd 5c 5a bd a5 7c d3 bd
       -0.094548866 -0.0040426734 -0.053311218 -0.103265084
000040 8e 17 e3 3c 33 85 1d bd ef 40 50 bd 0c 22 c8 bd
       0.027721193 -0.038457107 -0.050843176 -0.09772119
000050 a3 0b 85 bd 56 2f 11 be bf 15 40 3d 17 d0 2b 3d
       -0.0649636 -0.14178213 0.04689574 0.041946497
000060 30 de 9b bd 58 c5 69 3c 79 58 6a 3d ef 26 cb bd
       -0.07610738 0.014268242 0.05721328 -0.09919535
000070 d0 28 79 bc 7d d3 cd bd 86 2f a2 3d a7 9f 53 3d
       -0.015207484 -0.10050104 0.079192206 0.05166593
000080 57 44 8b bd dd 3c 84 bd eb 1c 9d bd 95 8f a5 bc
       -0.06800144 -0.06456921 -0.07671531 -0.020210067
000090 7d ad c7 bd f4 ba 0d be 1f 5f 56 3d 90 69 21 3d
       -0.09749887 -0.13840848 0.05233681 0.039407313
0000a0 8e 2f 57 bd 65 d1 c9 bd 46 3a 0f 3d 23 64 73 3d
       -0.052535586 -0.09854392 0.034967683 0.05942167
0000b0 fd 7d 04 bd 2d 64 b0 bd 24 f5 24 bd fb 05 b4 bd
       -0.032346714 -0.08612857 -0.040272847 -0.08790203
0000c0 ac 90 2c be 55 5e ac 3d fc 31 5e bd bb ba b9 bd
       -0.16852063 0.0841643 -0.054246888 -0.09068819
0000d0 f6 0b 18 3d ea a1 ea bd 5d 08 fb 3c 29 f1 01 be
       0.03712078 -0.11456664 0.030643636 -0.12689652
0000e0 e7 47 a8 3d c2 6e aa 3d 1d 7f 68 3d d1 b4 a1 bd
       0.08216839 0.083219066 0.05676185 -0.07895816
0000f0 fc a5 95 bc 1b 13 b1 ba 6b 48 52 3d 75 cb 7c 3d
       -0.018267624 -0.0013509722 0.051338594 0.06171747
000100 41 30 35 3c 6c 32 3b 3d 70 3b e7 bd 72 f2 a9 bb
       0.011058868 0.045702383 -0.11290634 -0.0051863724
000110 b6 88 37 bc 1f ec 55 bd ad 42 b8 bc 73 27 93 bc
       -0.011202028 -0.052227136 -0.022492731 -0.017963147
000120 a6 dd 7f 3d 03 f2 e0 3a c4 db 00 be e8 1e 8d bd
       0.06246724 0.0017161969 -0.12583834 -0.068906605
000130 e0 a4 24 bd c4 59 eb 3c 8e c3 97 3d 1a 63 66 3d
       -0.0401963 0.028729327 0.07410346 0.056246854
000140 05 f3 c5 3d b0 88 17 3d 6f 44 82 bd 8e dc 2c bd
       0.09665493 0.03699559 -0.06360709 -0.042202525
000150 de ff ba bd dd 3f 85 3c bd 1e 4f bd 6e 19 43 3d
       -0.09130834 0.016265804 -0.050566424 0.047631674
000160 a9 e2 a4 bc 1a 91 ac bd 11 69 1b 3d 50 66 7b bd
       -0.020127611 -0.084261134 0.037941996 -0.06137687
000170 95 50 35 bd ed ba 43 bc a2 40 30 3d 7d 64 0e bd
       -0.044266302 -0.011946422 0.04303039 -0.0347638
000180 cd 8d 85 bd fa e8 ec 3c 9c 5c 9f bc 42 9a 7b bd
       -0.06521187 0.028919686 -0.01945334 -0.06142641
000190 6b 53 30 bd df 6d bf 3b 0e 69 ae bd fd 27 13 3d
       -0.043048304 0.005841955 -0.08516131 0.035926808
0001a0 0c 1a d8 3c d1 52 75 bd 04 06 5d bc 61 b3 ec bd
       0.026379608 -0.059893433 -0.013490204 -0.11557651
0001b0 03 24 9a bb 90 86 d2 bd 87 cd 11 bd d2 8d b9 bd
       -0.004704 -0.10279572 -0.035596397 -0.09060253
0001c0 ea 88 c9 3c c0 ae c6 bd 15 2b f4 bd 05 aa 12 3d
       0.024601419 -0.097013 -0.1192228 0.035806675
0001d0 da 4d 06 be bd 87 43 3c b8 4f e8 3c 62 ac ec bd
       -0.13115636 0.011934218 0.028358325 -0.11556317
0001e0 88 6c af bd 83 68 b3 3c 69 61 73 bd 62 cb 65 bd
       -0.085656226 0.021900421 -0.05941907 -0.056102164
0001f0 0d 66 d6 bd da 91 eb bd 28 88 81 bd 90 4a 1a 3d
       -0.104686834 -0.11502428 -0.06324798 0.037668765
000200 fe 13 80 bc 9d 68 6a 3d 67 8a 04 be f9 1c 06 bd
       -0.015634533 0.057228673 -0.12943421 -0.032742474
000210 87 f3 09 bd 5b c4 ca bd c0 16 d7 bd 72 d9 cc bd
       -0.03367951 -0.09900733 -0.10502386 -0.10002412
000220 c1 6b 0b 3d 3d 93 62 bd a3 14 10 3d ed 06 6d bd
       0.03403831 -0.0553162 0.03517593 -0.057867933
000230 39 88 a1 bd 6f 25 8f 3c 46 48 99 bd ce e5 a6 bd
       -0.078873105 0.017473904 -0.07484488 -0.081493005
000240 22 d5 9a 3d 3c cc 48 bd ea fd 39 3d 31 95 01 be
       0.07560183 -0.049022898 0.045408167 -0.12654568
000250 f8 00 4f 3d ed 65 8c bd dd 13 c3 3c 5a cc 85 3d
       0.050538033 -0.06855378 0.023813182 0.065331176
000260 74 93 b3 bc 1b f1 bd bd 65 3c 07 be 31 32 6f 3d
       -0.021920897 -0.09274503 -0.13206632 0.058397476
000270 70 b7 31 3d 7e 35 d9 bd df 5b a1 bd 02 c9 c2 bc
       0.04338783 -0.10605906 -0.07878851 -0.023777489
000280 bc 10 88 bd b3 7f 0b be 1e a7 ab bc 2c de 06 3d
       -0.06643817 -0.13622932 -0.020953711 0.032926723
000290 16 19 b7 bd 7d 0e f1 bd 16 43 98 3c e9 18 a5 3d
       -0.08940332 -0.117703415 0.018586677 0.08061392
0002a0 62 17 69 bd 9b 90 50 3d 28 2d 32 bd 71 32 4f bc
       -0.056907065 0.050919157 -0.043500096 -0.0126463035
0002b0 42 b1 94 3b b8 cb 27 bd d8 38 ef 3c f3 d7 0f 3d
       0.0045377323 -0.040965766 0.02920191 0.035118055
0002c0 e0 30 ef bd 82 6d 80 3d b7 46 60 3c 42 6f 2c bd
       -0.11679244 0.06270887 0.013688735 -0.04209829
0002d0 72 44 d9 bd 56 af 1a bd 5a 02 c4 bd 08 ee fe bd
       -0.10608758 -0.03776487 -0.09570761 -0.124477446
0002e0 11 3d 81 bc ea 07 9b bd c1 03 05 3d 00 20 11 3c
       -0.015776189 -0.07569869 0.032474283 0.008857727
0002f0 be 45 3e bc dc 80 08 3d f5 9c 1e 3c c1 4a db bd
       -0.0116133075 0.033326015 0.009680976 -0.107076176
000300 50 02 e4 bd 36 38 c1 3c 12 a2 2f bd 32 8f 37 3c
       -0.111332536 0.023586374 -0.04287917 0.011203574
000310 e7 77 41 3d f3 1c 10 be 56 83 cd 3a 95 e2 92 bd
       0.04723349 -0.14073543 0.00156794 -0.07172123
000320 7d af 16 bd 30 c1 89 3d 6d 69 76 3d 12 3d 0e 3b
       -0.036788452 0.06726301 0.060159136 0.0021703881
000330 c0 fd 1c 3c eb 7b b5 bc 34 64 de bb d3 5f 0b be
       0.009581983 -0.022153815 -0.0067868475 -0.13610773
000340 56 c2 a2 bd b8 39 97 3d df ff 34 3d fe 7c 91 3d
       -0.07947223 0.07384056 0.04418933 0.071039185
000350 ca 29 93 3d 5e 99 b7 3d 0c 15 8c bd 05 f6 68 bd
       0.07185705 0.08964799 -0.06839952 -0.056875248
000360 18 23 3e bc 04 02 38 3b 16 d6 ce 3b 2d 1e 19 bd
       -0.011605047 0.0028077373 0.006312142 -0.037382293
000370 71 85 38 3b ee a6 6d 3c 6c 6d 04 bd d2 e9 d5 bc
       0.002815571 0.014505131 -0.032330915 -0.02611247
000380 5d 4a 8a bb 53 74 0c bc 65 45 09 be 8f 01 01 3d
       -0.0042202906 -0.008572656 -0.13405378 0.031495627
000390 ef 4c 5f bb 1d 42 31 3b 42 72 d5 bd 9b 91 8b 3d
       -0.0034072956 0.0027047463 -0.104221836 0.068148814
0003a0 c3 c5 c2 3d 7c b4 76 bd b0 72 c4 bb b5 5d 06 3d
       0.09510376 -0.060230717 -0.005995117 0.03280421
0003b0 c8 49 74 bd 10 91 36 bd 6a 29 ff 3d d4 98 17 bd
       -0.059640676 -0.044571936 0.12459071 -0.037010983
0003c0 aa d4 d7 3c 60 66 6c 3d fa 6e 43 3d f4 08 2e 3e
       0.026346523 0.05771482 0.047713257 0.16995603
0003d0 45 f4 98 3d 8c 69 04 3d 29 83 ef bc b7 c5 4c 3d
       0.07468466 0.03232722 -0.029237347 0.049993243
0003e0 41 65 f9 bd 5c 14 a1 bd 2c 26 89 3c 44 48 22 bd
       -0.12177516 -0.07865211 0.016741835 -0.0396197
0003f0 c6 26 dd 3d 5b d6 9e bd d6 5e 1a 3e 58 c0 77 3d
       0.10798411 -0.07755729 0.1507524 0.060486168
